examples/classification/result/epoch100.ckpt (torch_old, 748571 bytes, 30 tensors)

conv1.weight f4 [6, 3, 5, 5]
000000 d2 9a 40 3b fe 64 b9 bc 79 61 3d 3b e0 07 a9 bc
       0.0029389155 -0.022631165 0.002889721 -0.020633638
000010 67 e7 47 bb 5b 2f f6 3d 9f 1e 10 3e ce 2a 2a 3e
       -0.0030502917 0.12020751 0.14074181 0.16617891
000020 85 f8 ef 3d f4 71 26 3d 34 0e 83 3e cb 77 c3 3e
       0.11717323 0.040636018 0.25596774 0.38177332
000030 67 20 cf 3e 94 02 6a 3e 96 1e 82 3d b9 69 fe bd
       0.4045441 0.22852546 0.0635349 -0.12422509
000040 ec 7b 01 be e3 8b 52 be be ac 8a be 94 06 5a be
       -0.12644929 -0.20561175 -0.27084917 -0.21291572
000050 2d f6 1b be 54 bb 1b be de b8 14 be 1c 17 1f be
       -0.15230627 -0.15208179 -0.14523646 -0.1553616
000060 a3 ff 9b bd e7 9f 16 bd 1f f4 07 be be 55 dc bd
       -0.07617118 -0.03677359 -0.13276719 -0.107585415
000070 83 00 c6 bd e3 92 b9 3b 89 1b 94 bc a4 e7 4e bd
       -0.09668066 0.005663262 -0.018079536 -0.05051388
000080 b0 6c 52 3c 8c 27 54 3b 6e 26 2f bb d3 fe 24 3e
       0.012843296 0.0032372205 -0.0026725787 0.16112833
000090 d9 11 87 3e e3 08 a9 3e 55 53 36 3e 3d bf 67 3d
       0.26380804 0.33014593 0.17805226 0.056578863
0000a0 6d b7 0d be c5 70 3e be 92 75 71 be 90 1a 8d be
       -0.13839503 -0.18597706 -0.23580006 -0.27559328
0000b0 2e b4 25 be 45 62 94 bd b6 04 f8 bd b5 da b6 bd
       -0.16182014 -0.07245306 -0.121102735 -0.08928434
0000c0 ad 2f 5a bd 9a 3b aa 3d f0 a5 b8 bc 3a 22 bb bd
       -0.053268123 0.08312149 -0.022540063 -0.091373876
0000d0 1c b5 a1 bd 02 fe 63 bd 62 a0 94 3d e4 fb ae bd
       -0.07895872 -0.055662163 0.07257153 -0.08544138
0000e0 ee 5d 03 be e1 06 a3 bd 4f 72 f4 bc 89 c1 e2 3c
       -0.128288 -0.079602964 -0.029839663 0.027680175
0000f0 76 96 d7 3d ad b6 3b 3e 94 ac 7f 3e 17 24 3b 3e
       0.10526745 0.18331404 0.24968177 0.18275486
000100 55 c2 fa 3d fd 5c b9 bd 07 d1 ec bd 52 fa 18 be
       0.12244097 -0.09050939 -0.11563306 -0.1493924
000110 3e 55 09 be 8b d4 46 bd 25 74 d8 3c 72 7a d0 3c
       -0.13411424 -0.04854254 0.02642257 0.025449011
000120 ce 3f 8c 3d c6 85 d9 3d 26 ab 20 3e 57 d0 48 bd
       0.06848107 0.106212184 0.15690288 -0.049026813
000130 85 b5 b7 bd 7b 2e 8d bd bc 72 6c bd 48 a7 d8 bc
       -0.08970169 -0.06893631 -0.057726607 -0.026446953
000140 ec 28 14 be a9 55 17 be ae 6a a2 bd e4 64 84 bd
       -0.14468735 -0.1477877 -0.07930504 -0.06464556
000150 27 5e dc bd c8 e2 32 be 55 67 1b be a9 bf 97 bd
       -0.10760146 -0.17469323 -0.15176137 -0.07409603
000160 a3 3d 99 bd 41 be 23 be 8a b5 19 be 72 75 03 be
       -0.074824594 -0.15990545 -0.15010658 -0.1283777
000170 6d 98 38 bd 74 f9 74 bd 4f e4 fc bd 9d 42 c5 bd
       -0.04506724 -0.05980821 -0.12348234 -0.09631846
000180 86 a1 d4 bd 46 9e 4c bd c0 6d 88 bd d4 36 d0 bd
       -0.10382371 -0.04995563 -0.06661558 -0.10166708
000190 c1 51 20 3d 22 4f be 3b 80 02 21 3c d1 c6 13 bd
       0.039140467 0.005807773 0.009827256 -0.036078278
0001a0 2f e4 8f bd 33 c0 e7 bb 32 bc 9c 3c d6 26 9f 3d
       -0.070259444 -0.0070724725 0.019132707 0.07771079
0001b0 11 b1 18 3d c0 d9 af bd 55 13 06 bd ba 7e 1f 3d
       0.03727824 -0.085864544 -0.03273328 0.038939215
0001c0 0e 28 f3 3d b3 7c 79 3d 0b 45 e4 bd f2 68 3a bd
       0.11872874 0.060909938 -0.111459814 -0.04551024
0001d0 33 72 d7 3c 5d 63 01 3e 50 55 7d 3d bb 74 af bd
       0.026299572 0.1263556 0.06184894 -0.085671864
0001e0 ba 87 9b bd 89 0c 4a bd a6 0f ed 3c 31 57 ae bc
       -0.07594247 -0.04932836 0.028938126 -0.02128181
0001f0 94 69 fa bd 23 10 24 3e a6 bb 19 3e b4 66 13 3e
       -0.12227169 0.1602178 0.15012988 0.14394647
000200 b3 36 97 3d 69 25 bb bc 15 6a e0 3d 63 5b 2b 3e
       0.0738348 -0.022844987 0.109577335 0.1673408
000210 22 72 5a 3e b3 8c 1a 3e 26 c9 89 bc fb 4c 91 3d
       0.213326 0.15092735 -0.016819548 0.07094761
000220 05 19 35 3e 3e c2 7f 3e 5b 58 33 3e ef f4 96 bc
       0.17685325 0.24976441 0.17514174 -0.01842734
000230 a2 46 38 3d 98 ea 21 3e 43 fd 86 3e 18 86 40 3e
       0.044989236 0.15812147 0.26365098 0.18801153
000240 98 18 b1 3c 87 25 c7 bb 01 94 7a 3d 27 b3 1c 3e
       0.021618173 -0.0060774717 0.061176304 0.15302716
000250 f1 59 c5 3d bc 38 ce bc d4 72 55 bd 72 a9 9b bd
       0.096362956 -0.025173537 -0.05211146 -0.076006785
000260 5c 53 13 3e fc 61 c8 3d 1c 60 73 bd 1d d0 46 bc
       0.14387268 0.09784314 -0.05941783 -0.012134579
000270 ff ae 9b be c0 fc 43 be a5 2c 25 3e 1b b3 9d 3d
       -0.3040695 -0.19139385 0.16130312 0.07700177
000280 90 d5 3e 3e b1 8c 2f bd a8 38 e4 be 19 72 7d be
       0.18636155 -0.042858783 -0.44574475 -0.24750556
000290 6a 8d 0a 3d b0 56 e2 3d 75 fc b6 3e 2c 8d c6 3c
       0.03382627 0.110516906 0.35739484 0.024237238
0002a0 66 8e 62 be fe d1 b2 bd b2 ee c0 bd 88 1d ac 3d
       -0.22124633 -0.08731459 -0.094205275 0.0840407
0002b0 a2 f6 5b 3e 7a 48 99 3d a8 f3 73 3d c3 20 c8 bd
       0.21480802 0.07484527 0.05955854 -0.09771874
0002c0 a0 25 d7 bd a1 85 0f 3e a1 e3 0a 3e 78 e7 75 3b
       -0.10505223 0.14015819 0.13563396 0.0037522
0002d0 2a 3d 4d bc c4 00 8b be 47 56 11 be ec a9 6f 3e
       -0.01252679 -0.27149022 -0.14193068 0.23404664
0002e0 6b e1 29 3e d4 8b 2a 3e 33 e7 3e bc ee af c1 be
       0.16589896 0.16654903 -0.011651802 -0.37829536
0002f0 19 b1 2d be f5 b0 e2 3d 65 8f 69 3d ca a2 b2 3e
       -0.16962089 0.11068908 0.057021517 0.34889823
000300 fb 4b 5b 3d d6 7d 35 be 2c be 72 bd 0c 51 34 be
       0.053539257 -0.17723784 -0.059263393 -0.17609042
000310 76 ef f4 3c 0e 15 39 3e 80 64 35 3d 55 f6 54 3c
       0.02989934 0.18074438 0.044285297 0.012998183
000320 71 bf bc bc 0c 65 38 bd 11 76 12 3e de 03 af 3d
       -0.023040505 -0.04501824 0.14302851 0.085456595
000330 90 f7 a0 bd 94 06 ad 3c a7 c4 6b be 07 e5 0d be
       -0.07859719 0.0211213 -0.23024236 -0.13856898
000340 34 aa 29 3e 1e a5 96 3d c1 71 37 3e 3b b3 6c bc
       0.16568834 0.07355712 0.17914487 -0.014447029
000350 f3 89 c2 be 8a b3 54 be 0b 56 4e 3d 5d 34 ab 3d
       -0.37995872 -0.20771614 0.050375026 0.08359597
000360 79 36 ad 3e e8 39 29 3d b2 58 45 be 96 f6 ba bd
       0.33830622 0.04131499 -0.19272116 -0.09129064
000370 92 08 e7 bd 66 c5 8d 3d 91 91 46 3e ea 83 51 3d
       -0.112809315 0.069224164 0.19391467 0.051151194
000380 cb ea bb bb a7 6e 8f 3d 05 b3 71 bd a0 71 80 3d
       -0.0057347766 0.07003527 -0.059008617 0.06271672
000390 ce 50 24 bc f4 27 4d 3d a6 1a d0 3d 15 e8 85 be
       -0.010029031 0.05008693 0.10161333 -0.26153627
0003a0 82 89 28 3e 40 74 3b 3d 14 cf 7e bd 2c 10 2e 3e
       0.16458705 0.04576516 -0.062209204 0.16998357
0003b0 2e 0a da be 9f a8 86 3e 25 6c 33 3e 22 2d 46 be
       -0.4258589 0.26300523 0.17521723 -0.19353154
0003c0 f6 85 04 3e 7e c2 d1 be c0 de 94 3e 76 99 1a 3e
       0.12941727 -0.40968698 0.29076195 0.15097603
0003d0 62 18 5e be 31 e5 72 3d 3b 57 62 be d2 fc 44 3e
       -0.21688989 0.059300605 -0.22103588 0.19237068
0003e0 2b f1 e0 3c 1c 4b fc bd 0c 79 4e 3d 86 22 03 be
       0.027458748 -0.123190135 0.050408408 -0.12806138
0003f0 d8 98 87 3d ac 4d 81 3b 97 3f cf bb 26 e9 e0 3d
       0.066209495 0.003946027 -0.006324719 0.109819695

conv1.bias f4 [6]
000000 aa 15 93 be f0 43 d9 3e e6 fa 73 3e 56 ba c6 bc
       -0.28727466 0.42434645 0.23826179 -0.024258774
000010 fc e9 37 bc 71 3a 33 3e
       -0.01122522 0.17502762

conv2.weight f4 [16, 6, 5, 5]
000000 c2 fa 11 3d e1 09 c1 3c 32 d1 d3 bc 84 b9 61 bc
       0.035639532 0.023564281 -0.025856588 -0.0137771405
000010 2b 2a ae bb e7 70 40 bd bd 0a 44 bc 79 36 ba 3c
       -0.0053150854 -0.046982672 -0.011965451 0.022731053
000020 4a 1d 51 3c 12 b2 89 bc 71 28 64 bd 7f 66 69 3c
       0.012763331 -0.016808543 -0.05570263 0.014245628
000030 95 f4 63 3c 49 07 97 3b 83 f2 b8 bb 74 55 4a bd
       0.013913293 0.0046090228 -0.005644144 -0.0493979
000040 ee 68 25 3d f5 c9 02 3d e8 d0 c3 3c 4c 23 ae 3c
       0.040383272 0.031930882 0.023903325 0.021257065
000050 e3 23 9d bc 91 86 b5 3c 01 29 80 ba fe c1 07 3c
       -0.019182151 0.022158893 -0.0009777845 0.008285997
000060 3c a0 8b 3c 5c 2e e5 bc 7f 26 a3 bd 43 90 15 be
       0.01704418 -0.027976207 -0.07966327 -0.14605813
000070 4f 03 b8 bd 60 68 1e bc b6 5c 7d bd 7e 51 e5 bd
       -0.08985006 -0.00966844 -0.061855994 -0.11197184
000080 e6 28 d3 bd 64 3a ca bc 26 de 3f 3d 6b 89 6a bd
       -0.10310535 -0.024686046 0.046842717 -0.05725996
000090 8a 53 cb bd c7 2e 11 bd 1e 8e 0c 3d 4b a5 61 3d
       -0.09928043 -0.035445 0.03431522 0.055089276
0000a0 1d 04 11 bd 4f d9 e6 bc 38 61 31 3c 3e d1 ab 3b
       -0.035404313 -0.028179793 0.010826401 0.0052434495
0000b0 7e f1 6f 3d c1 d4 10 ba fc 3d a3 3c 6b 76 c5 3c
       0.058579914 -0.0005524867 0.019927017 0.024104318
0000c0 e4 d0 0c 3d d8 f1 61 3d 38 13 9f bd b6 69 d9 bd
       0.0343789 0.05516228 -0.077673376 -0.10615866
0000d0 5a 8c 06 be 95 ef c5 bd e5 4b 81 bd 96 9b b5 bd
       -0.13139477 -0.09664837 -0.06313304 -0.08867566
0000e0 2d 52 d2 bd 19 88 aa bd b4 a5 35 bd 2e 78 82 bd
       -0.1026958 -0.0832674 -0.04434748 -0.06370579
0000f0 9c da 85 bd 83 2d 69 bd ff b4 28 bd 33 06 a5 bc
       -0.06535837 -0.05692817 -0.041188236 -0.020144558
000100 c6 42 ad bc 61 62 69 bd fa ab 0f bd 2c 97 d1 3b
       -0.021150004 -0.056978587 -0.03507612 0.006396195
000110 84 d0 59 3c 0e d4 d8 bc 8d 08 1c bd 6d 9c 08 bd
       0.013294343 -0.026468303 -0.038094092 -0.033352304
000120 80 9e 05 bd f5 1b 94 bb 09 a5 8e ba 84 b1 4d bd
       -0.03262186 -0.0045199343 -0.0010882925 -0.05021812
000130 d2 12 e6 bc c8 fb b3 bd 5f 39 a1 bd b6 b2 62 bd
       -0.028085146 -0.08788258 -0.07872271 -0.055346213
000140 7f 9f 9c bc 8f 1f 04 bd 55 02 5a bd a6 0a 20 bd
       -0.019119022 -0.03225666 -0.05322488 -0.039072655
000150 21 c9 e7 bb d4 18 97 3b c7 b6 08 bd 97 01 96 ba
       -0.007073537 0.004611114 -0.033377435 -0.0011444566
000160 1d 9f 73 3b 8e 19 b5 bb 52 70 94 3c dd 22 2a 3c
       0.0037173696 -0.005526728 0.018119965 0.010384289
000170 69 8b ba 3c 6e 73 33 bc e7 44 26 bd ad 46 8e 3d
       0.022771554 -0.010952814 -0.040593054 0.06947074
000180 c4 20 73 3d f2 8d 56 3c da fa cf 3c bc 31 61 3c
       0.05935742 0.013095366 0.02538817 0.013744768
000190 45 f7 33 3d 0d 41 ac 3d de 53 68 3d 73 a4 d2 bc
       0.043936986 0.08410845 0.056720607 -0.025713181
0001a0 8e 21 b3 bc 08 e6 c3 3d 81 b1 8f 3d e3 57 9c 3c
       -0.021866586 0.09565359 0.07016278 0.019084876
0001b0 42 d0 c5 39 f8 d2 0b 3d bd 87 9d 3d 3a 53 0b 3d
       0.00037729932 0.034136742 0.07691906 0.034014918
0001c0 a9 10 23 3d 21 77 37 3d 29 4a 3f 3d a4 7d 39 3c
       0.03981081 0.044791345 0.046701584 0.011321459
0001d0 10 04 00 bb 24 75 30 3c d2 b4 10 bc 2c 51 3f bc
       -0.0019533671 0.010770116 -0.008832173 -0.011677068
0001e0 da 40 25 bd ef 77 bb 3c 0f a4 02 3d 95 83 c1 3a
       -0.04034505 0.022884337 0.03189474 0.0014763946
0001f0 1f 4f fa bc a0 10 6a 3e ad a1 64 3e 82 ed 83 3e
       -0.030555306 0.22857904 0.223273 0.25767142
000200 72 2b 5f 3e 13 eb 14 3d 91 f2 3f 3e 17 9d 95 3e
       0.21793917 0.036356997 0.18744875 0.29221413
000210 19 cd 82 3e 2f 54 09 3e 9b 3c 8d bb 23 88 5c 3e
       0.25547102 0.1341102 -0.0043102033 0.21536307
000220 89 02 10 3e b1 0d 45 3d 3d a1 51 3d c4 2f 91 bc
       0.14063467 0.04810876 0.05117916 -0.017722972
000230 2f 1f 05 3e cd 53 79 3d 43 e5 d1 3d 36 d3 3c 3d
       0.13000177 0.060870934 0.10248806 0.046099864
000240 9c 22 08 3d c4 37 1b 3d c2 a2 69 3d 3f 97 1e 3d
       0.03323613 0.03789498 0.057039984 0.03871846
000250 15 dc 11 3d a8 22 cc 3b 24 ed 64 3c 3e 9f 88 bb
       0.035610277 0.0062297173 0.013972554 -0.004169374
000260 a4 f4 46 bd 72 b2 ef bc 70 66 9e bc 72 79 44 3c
       -0.04857315 -0.029259894 -0.019335955 0.011991845
000270 9a e9 32 3d 47 66 10 bd 3a f4 66 bd e4 93 0d bd
       0.04367981 -0.03525379 -0.056385256 -0.034564868
000280 ec c5 b4 bd cd ee 55 3c e8 0d f0 3d 7e 60 5d 3d
       -0.08826813 0.013057423 0.117214024 0.0540471
000290 16 8c f3 bd 68 54 2a bc 17 06 d6 3b cf 56 e7 3c
       -0.11891954 -0.010396101 0.0065314877 0.028239636
0002a0 2b 1a 49 3d 94 14 88 3d 4a 08 8c 3c 65 c4 82 bd
       0.04909722 0.0664455 0.017093796 -0.063851155
0002b0 0e 28 9d bc 73 ec 8d 3d 12 7a b5 3d 75 fa 6e bd
       -0.019184139 0.06929865 0.08861174 -0.058344323
0002c0 c0 61 cb bc 64 a8 06 bd 8b c8 2b bd 64 aa 8f bd
       -0.024826884 -0.032875434 -0.0419393 -0.07014921
0002d0 6a a5 64 bc e8 f2 06 bd 15 f1 26 3b 74 54 78 ba
       -0.013955453 -0.032946497 0.0025473286 -0.0009473034
0002e0 e3 ad fe bc 5d 76 f3 b9 f0 c8 27 bd 1d 84 ec ba
       -0.031088775 -0.0004643676 -0.040963113 -0.0018044744
0002f0 72 51 02 3d 4b e5 71 bb 77 61 0b 3d 40 57 01 3b
       0.031815954 -0.003691035 0.034028497 0.0019735843
000300 cd ed 0f bd e1 f9 f1 3c f3 52 13 3d 09 8d 40 3d
       -0.035138894 0.029538097 0.03596778 0.0470095
000310 fc dc 2a 3d 24 37 10 3c 49 67 a7 3c 5b d3 00 3c
       0.041714653 0.008802209 0.020434992 0.007862891
000320 33 22 a4 3a c5 b9 52 3c 89 be ed 3d 46 86 c7 bc
       0.0012522399 0.012861674 0.11608607 -0.024356019
000330 72 9a 98 bd 1c a6 85 bb cd 93 ed 3c 88 2d bd 3d
       -0.07451333 -0.0040786397 0.029001141 0.092372
000340 67 5a 27 3e 71 e3 b2 bd 65 73 3c 3d 57 53 0f 3e
       0.1634308 -0.08734787 0.046008486 0.13996635
000350 b1 8a 31 3d ac 99 0a 3c bc 0e 92 3d 91 56 24 bd
       0.043345157 0.00845949 0.071317166 -0.04012162
000360 40 a7 bb 3d 88 7e 6a 3e 33 6f 41 3d 78 c2 e4 bd
       0.0916276 0.2289983 0.04722519 -0.111699045
000370 8b bf 09 be 52 ef 87 bc cf ee 92 3d 03 0d 09 3e
       -0.13451974 -0.016593609 0.071744554 0.1338387
000380 a1 8f bc 3c c2 4c 6d bd 86 f1 c7 3c 0c 80 ac bc
       0.023017706 -0.05793453 0.02440716 -0.021057151
000390 c0 fb a4 3c e3 8f 81 bc 09 3d 95 bb 79 76 6a bc
       0.020139575 -0.01581568 -0.004554395 -0.014310473
0003a0 8f 7b ea bb 76 fc 89 3c 75 e4 30 bc 2d 6a a6 3c
       -0.0071558426 0.016844016 -0.010796656 0.0203143
0003b0 e7 44 33 bc ae 09 85 3d 7e ac 21 3d f0 f6 18 3c
       -0.010941721 0.06495987 0.039471142 0.009336218
0003c0 4f 4a 0f 3c 0f 44 22 bd b7 e8 6d 3c ea cd ac 3d
       0.008745744 -0.039615687 0.014520816 0.084377125
0003d0 bc cd 87 3d e8 97 d4 bd 5d 4a c9 bd bb 8e cc bd
       0.066310376 -0.10380536 -0.09828637 -0.09988161
0003e0 97 6a 03 bc 69 8e 92 bb 50 20 91 3d 16 5a 6f bc
       -0.0080210185 -0.004472543 0.07086241 -0.0146088805
0003f0 a5 c0 08 be 3a f0 a5 bd 62 5f 04 bd b3 46 1e 3d
       -0.13354738 -0.0810246 -0.032317527 0.038641643

conv2.bias f4 [16]
000000 d2 37 4f 3e 65 40 86 be eb 9e 69 bd 9f a4 b7 3d
       0.20236138 -0.26221004 -0.05703632 0.08966946
000010 ad 51 16 3e a9 98 e9 3e 27 5d 79 3e 39 e3 7b be
       0.14679594 0.45624283 0.24351941 -0.24598397
000020 2f 5d 1d 3e a9 f4 bf b4 5a 8a d9 be ae 96 1e 3e
       0.15367578 -3.5754536e-07 -0.42488366 0.15487167
000030 91 6c 7a 3d 00 1b 9f 3e c9 1f c2 bd 4b 04 61 be
       0.061138693 0.31075287 -0.09478719 -0.21974294

fc1.weight f4 [120, 400]
000000 77 c1 50 3c 20 cd 00 3d 5b a5 1a 3d 20 ca 3f 3d
       0.012741438 0.031445622 0.03775535 0.04682362
000010 6e 99 ae 3a 79 ea 0f 3c 97 05 d0 37 88 d1 f4 3c
       0.0013320872 0.00878393 2.4798135e-05 0.029885069
000020 1a 3d 29 3d 95 e6 1c b9 ba 19 ba bc 16 9f 5e 3d
       0.041318037 -0.00014963218 -0.022717346 0.054350935
000030 7b 90 2f 3d 86 6a f8 3c 6b 7f 89 bb 02 1a 2c 3b
       0.042862397 0.030324232 -0.0041960976 0.002626062
000040 6e 4d 53 3d c9 9d 9a 3d c3 3d 9a 3d d1 11 49 3d
       0.051587515 0.075496264 0.07531311 0.049089257
000050 28 c8 4a 3d 1d 1b 11 3d 2d c7 df 3c 3a 06 4c 3d
       0.04950729 0.035426248 0.027316654 0.049810626
000060 24 02 03 3c ae 26 df bb a2 37 57 bd 30 9f 6b bd
       0.007996116 -0.006810031 -0.05254329 -0.05752486
000070 21 bd c6 bc 47 75 9a 3c af 2a 00 bd 6f 18 8b bc
       -0.024260106 0.01885475 -0.031290706 -0.016979424
000080 d3 dd 29 bd f6 e4 1e bd bc ee 45 bc ae e7 e4 bc
       -0.041471314 -0.038792573 -0.0120808445 -0.027942505
000090 26 b2 11 bd cb 21 72 bd 25 ed 29 bd 96 cc 3a bd
       -0.035570286 -0.05911426 -0.041485924 -0.045605265
0000a0 04 45 a4 bc 68 54 c7 bc e5 f8 d1 bc 78 9a 98 bd
       -0.02005244 -0.02433224 -0.025631377 -0.074513376
0000b0 ea 5c 73 bd 42 9c 18 bd 8c 4d 22 bc c6 90 81 bb
       -0.05941478 -0.037258394 -0.009906184 -0.003954026
0000c0 db 79 88 bc 67 f2 09 bd 98 8d 1a bc a1 06 dc bc
       -0.016659668 -0.03367844 -0.009433173 -0.02685863
0000d0 2e c3 25 3c b5 53 99 3b cb ad 5b 3d 23 b0 64 ba
       0.010117335 0.004679168 0.05363254 -0.0008723756
0000e0 61 32 08 bd 48 e3 fc 3c 5b 86 5a 3c a8 ea 35 3d
       -0.03325117 0.030870095 0.013337697 0.04441324
0000f0 3b 50 91 3b 8e 24 82 bc a1 b9 12 3b 0d 48 fe 3b
       0.004434613 -0.015886571 0.0022388475 0.007760054
000100 03 d7 29 3d 4e 59 08 bd f6 1e ba 3c b1 51 a5 bc
       0.041464817 -0.033288293 0.022719841 -0.020180555
000110 74 61 d2 bc 31 41 1d 3d cd 70 17 bd c7 9e d9 3c
       -0.025681235 0.03839225 -0.03697281 0.026564969
000120 53 17 ae 3c 6f 41 64 3b 0a 4c 85 3d cc 08 99 3a
       0.021251356 0.003482904 0.06508644 0.0011675595
000130 00 41 bc bb a0 05 48 bc 18 44 36 3b 2b e7 12 3d
       -0.0057450533 -0.012208372 0.0027811583 0.03586499
000140 e2 95 cf 3c bb 1a b4 3c 24 aa 03 3c e4 9a 5d bc
       0.025340024 0.021985402 0.00803617 -0.013525698
000150 0e 9f 91 bc 26 a7 cd bb fb ae f6 3b 54 86 a5 3c
       -0.017776038 -0.006276029 0.0075281835 0.020205654
000160 a3 48 ac 38 e7 1c c4 bc fd 7b f8 bc 71 9b 3a 3b
       8.215129e-05 -0.023939563 -0.03033256 0.0028473998
000170 42 10 44 3d 8e f2 9d 3c e2 07 c1 bb f4 f2 8f bc
       0.047867067 0.019280698 -0.0058908323 -0.017571904
000180 31 5f 3f b9 f1 e1 a8 3c 9e c6 89 3b 92 fa b4 3c
       -0.00018250641 0.02061555 0.004204585 0.022092137
000190 9d ef 70 bd a4 fc 8e bc ae 98 8b 3c 55 e2 b0 3c
       -0.058822263 -0.017454453 0.017040577 0.021592299
0001a0 33 fc ac 3c 42 7d 6c bd 81 e2 6d bd f6 0f 04 3d
       0.021116352 -0.057736643 -0.05807734 0.032241784
0001b0 41 82 2b 3d 85 30 eb 3b 52 27 97 bc 70 17 86 bd
       0.041872267 0.007177415 -0.018451367 -0.06547439
0001c0 43 50 b7 bc 9d 0f 83 3b bf dc 93 bc 4e 85 1f bb
       -0.022377139 0.003999664 -0.018049596 -0.002434093
0001d0 d2 46 18 bb b3 4f 48 bb 27 1d 91 bc 6b 39 af bb
       -0.0023235572 -0.0030565083 -0.017714096 -0.005347421
0001e0 49 d7 43 bc d7 68 39 3d 67 70 34 3c 98 e3 f1 bc
       -0.011953183 0.045266 0.011013127 -0.02952747
0001f0 49 a8 9e bb ab 00 9f bc 2f dd 1c 3d b2 21 f0 3c
       -0.0048418385 -0.019409498 0.038296875 0.029312942
000200 7e 40 64 bb 3e 27 de 3c 0e 95 22 3c 50 29 20 3c
       -0.003482848 0.027118322 0.009923233 0.009775475
000210 dd ae a2 39 d3 bb 8d bc 31 ec 81 3c 79 8a a8 3c
       0.0003102933 -0.017301476 0.015859695 0.020573841
000220 16 7d 6c 3b a2 9b bc 39 6c 08 c9 3c d8 77 a8 3d
       0.00360853 0.0003597411 0.024540149 0.082259834
000230 e0 35 6e 3c 84 53 e5 bb 25 aa 76 3c 29 93 1e 3d
       0.014539212 -0.006998481 0.015055214 0.03871456
000240 b7 9f b6 3d ec 3c 59 3c 2c 2a 04 bc 6c 71 82 bc
       0.08917182 0.013259154 -0.008066695 -0.015923224
000250 2a 3e a2 3c d7 31 89 3d e6 8d e7 bc 93 2a 0b 3c
       0.019805033 0.06698959 -0.028265905 0.008494037
000260 63 46 1b 3c a9 69 a1 ba 37 88 13 bc 74 fb be 3c
       0.009477231 -0.0012314814 -0.009004644 0.023313262
000270 1b 8e e9 3c 17 e5 57 39 3d 17 34 3a cd 13 e5 bb
       0.028510144 0.0002058934 0.0006869918 -0.006990886
000280 59 23 96 3d 87 d4 68 3d 0c 92 ef 3c e5 28 b9 bc
       0.07330961 0.056843307 0.029244445 -0.022602508
000290 84 54 a2 bc 9a 29 9d 3d 37 03 5a 3d e7 6a ab 3c
       -0.01981569 0.076739505 0.053225722 0.020924998
0002a0 37 50 be bc 06 96 70 bc 04 8a ee 3c b2 e4 0d 3d
       -0.023231609 -0.014684206 0.029118545 0.03464193
0002b0 30 f2 4a 3c 79 90 64 3c 4d b4 0f 3d 09 fc 58 bd
       0.012386844 0.013950461 0.035084058 -0.052974734
0002c0 86 4b eb bc 52 1b e9 3a 93 78 bf 3b 5f 61 2e b9
       -0.028722536 0.0017784631 0.005843231 -0.00016630207
0002d0 53 64 2b bd 1f 69 2e bd 7f 82 06 bc bd 1b 28 3a
       -0.041843724 -0.04258072 -0.008209824 0.0006412825
0002e0 65 23 1d bb 6e 33 97 bc 26 3d 15 bd 80 47 b4 bb
       -0.0023977396 -0.01845714 -0.03643527 -0.0055016875
0002f0 77 74 df 3c d4 4d 3c 3c 0f 1b ed bc 75 b3 5c bc
       0.027277214 0.011493165 -0.028943567 -0.01347052
000300 0c 05 53 bc ae 13 57 bc 58 98 55 3c 75 cf 63 bd
       -0.012879621 -0.013127251 0.01303681 -0.05561777
000310 3a 29 52 bd 9b f6 d2 bc 12 6a 73 bc 21 8c a3 bb
       -0.051308848 -0.025752356 -0.014856832 -0.00499107
000320 1e 34 f2 b9 8d a8 4a bd e6 14 1d bd b3 e3 92 bc
       -0.00046196667 -0.04947715 -0.03835001 -0.017930841
000330 01 b6 83 3c 5c 87 fb bb c0 cf 05 bd aa 21 44 bd
       0.016077997 -0.007676048 -0.03266883 -0.047883667
000340 93 f6 03 bd bc fb ca bc 63 3c 32 bc 31 44 89 bb
       -0.032217573 -0.02477824 -0.010878655 -0.0041890373
000350 86 01 18 bd f2 38 82 bd e4 07 60 bd a1 3a 7b bc
       -0.037110828 -0.06358518 -0.054695025 -0.015333802
000360 b8 54 8f 3b 1a 68 79 3b 6f 00 37 bd 14 a0 66 bd
       0.004374113 0.0038056434 -0.044678148 -0.056305006
000370 37 21 03 bd 19 cc 58 3c 55 44 46 3d a8 af 1f 3d
       -0.032014098 0.013232254 0.04840501 0.03898588
000380 fb f2 97 3c c9 fd ba 1f 82 20 cd 1f 74 a8 50 a0
       0.01854848 7.9193916e-20 8.6874657e-20 -1.7674022e-19
000390 b8 46 4b 20 61 21 e4 1f 2a 10 81 1e 78 51 03 a0
       1.7218168e-19 9.6616977e-20 1.3665092e-20 -1.1123087e-19
0003a0 56 f4 50 a0 46 28 73 a0 e0 bd 81 1e 2f dd e2 1f
       -1.7699129e-19 -2.0596226e-19 1.3736937e-20 9.608064e-20
0003b0 27 88 21 a0 67 f1 6b a0 c1 df 86 20 eb 27 62 a0
       -1.368228e-19 -1.9985148e-19 2.284855e-19 -1.9156152e-19
0003c0 2a d6 16 1f b9 46 8c a0 24 b4 4d a0 2b 9b 24 20
       3.1940888e-20 -2.3763723e-19 -1.7423779e-19 1.3942681e-19
0003d0 80 36 54 9e 2c 98 b9 9f 2e d0 8a a0 d5 82 95 20
       -1.1234457e-20 -7.8602295e-20 -2.351587e-19 2.532816e-19
0003e0 40 e8 88 a0 9b 46 35 20 f8 a4 5b bd dd d0 5b bd
       -2.3192986e-19 1.5354658e-19 -0.053624123 -0.053665984
0003f0 f8 75 65 bc ee 95 12 bb 4d a8 e8 bc 24 1f 9d bd
       -0.014005177 -0.0022367197 -0.028400565 -0.07671955

fc1.bias f4 [120]
000000 58 a6 2d 3d 02 9b 0d bc c2 fc dd ab 09 5f b8 35
       0.042394966 -0.008642914 -1.5773149e-12 1.3736727e-06
000010 21 76 2f 3c 8d 6e eb b7 3b fc 58 3b 79 07 a7 3c
       0.0107093165 -2.8065662e-05 0.0033109325 0.020389305
000020 e3 cc c8 b5 0f e6 ec 38 04 d0 cd ba e2 7f fb b7
       -1.4960791e-06 0.00011296209 -0.0015702252 -2.9981082e-05
000030 6f e8 17 ac 02 26 27 b7 71 ad c3 3c 1e 13 89 3d
       -2.1587417e-12 -9.962825e-06 0.023886414 0.066930994
000040 7c c0 9b 3b ee cf d1 3c 07 02 b1 b5 23 ee 08 3d
       0.0047531705 0.025611844 -1.3188118e-06 0.03343023
000050 4a 54 5a 9b 84 8e e0 3c 60 87 f8 b7 5d 76 34 34
       -1.8059773e-22 0.027411707 -2.9626943e-05 1.6806867e-07
000060 ef 0a b1 b7 31 98 8f b5 61 c9 4a b8 78 a0 6b 3d
       -2.1105136e-05 -1.0698624e-06 -4.83481e-05 0.05752608
000070 d6 d9 dc b5 87 cd 23 b9 5d 3c 70 b2 fd 61 e7 27
       -1.6454676e-06 -0.00015621456 -1.3983564e-08 6.422162e-15
000080 1c da a8 b5 dc e4 85 b1 de ce 19 bd 87 89 4c 3c
       -1.2580454e-06 -3.8968277e-09 -0.0375508 0.012483961
000090 8d 05 c2 3d 6e 0f 9b b7 bc b8 4f bd 27 4f 28 3c
       0.09473715 -1.8484625e-05 -0.050713286 0.010272778
0000a0 14 a6 42 b4 f5 54 76 3d da 95 ce b4 f8 ca 1c 3a
       -1.8128077e-07 0.060139615 -3.8479521e-07 0.00059811724
0000b0 82 3f 21 b9 a2 ae ee bc 02 e3 3e ba bb 9d 29 ba
       -0.00015377815 -0.029136006 -0.00072817516 -0.0006470342
0000c0 76 54 10 3d b1 53 05 be 2b 96 d5 2f 2d 1b 8a bc
       0.0352368 -0.13020207 3.8851175e-10 -0.016858662
0000d0 2d a9 de 90 2f 0d 29 b9 f9 45 92 bb 56 35 02 b7
       -8.782422e-29 -0.00016122007 -0.004463908 -7.761022e-06
0000e0 e2 0c 21 bd 7a 5e a1 3d 52 16 3a 3a 93 b3 97 b4
       -0.039318927 0.07879348 0.0007098663 -2.82566e-07
0000f0 33 58 14 ba e0 7e a6 3a fe 81 c3 b6 08 30 78 b6
       -0.00056588947 0.0012702607 -5.826586e-06 -3.6982838e-06
000100 c7 0b 35 36 d0 f2 86 20 6c 07 2f 1b 69 3d 77 3d
       2.6977957e-06 2.2861163e-19 1.4478059e-22 0.0603613
000110 f6 01 89 b5 7e d5 85 3d b0 34 c7 35 63 c1 97 b8
       -1.0207866e-06 0.06534861 1.484199e-06 -7.236262e-05
000120 55 e9 a9 a1 0b d3 ca 3b 9a b2 ae 3c 3f a4 58 ac
       -1.1513648e-18 0.006189709 0.021325398 -3.078662e-12
000130 3e 61 35 3c e3 87 a0 bc b5 15 8c 3c bd 6c 3e bc
       0.011070548 -0.019596046 0.017100194 -0.011622605
000140 7f c5 c5 3c d5 f0 da 39 dd 5c 31 2f 3d 7a 9e 3d
       0.024142025 0.00041759634 1.6131048e-10 0.07738159
000150 bb 9a c8 3d 38 45 06 3d 2a 1e 9f 3d 42 1d eb b4
       0.097951375 0.032780856 0.07769425 -4.379345e-07
000160 ed c0 18 36 2f c8 dd 3d 7e 86 0e 3b fb d0 51 3d
       2.2762063e-06 0.108291976 0.0021747644 0.05122469
000170 b1 49 ab 2c b3 1d 26 37 be 33 ce 39 57 eb 0c 34
       4.8682937e-12 9.901286e-06 0.00039329933 1.3124132e-07
000180 06 65 0a aa 39 4e 97 a1 75 91 3d b9 63 54 0e 36
       -1.2291912e-13 -1.0252863e-18 -0.00018078632 2.1208768e-06
000190 37 35 05 38 3d 58 0d b5 34 95 68 ba 64 38 6a bb
       3.175923e-05 -5.2654997e-07 -0.00088723307 -0.0035739178
0001a0 65 ba 0b ba 31 00 b8 b8 c3 4a 59 bb 80 07 e3 b0
       -0.0005330204 -8.773839e-05 -0.0033156134 -1.6518555e-09
0001b0 24 f1 13 38 28 71 66 a2 b7 9b 1c b8 56 4b d3 32
       3.527211e-05 -3.1230717e-18 -3.733832e-05 2.4597892e-08
0001c0 ac 4f 58 3d e0 1b aa 3b a2 dc 13 bc b9 5f b0 30
       0.052810356 0.0051913112 -0.009024771 1.2832891e-09
0001d0 2c c7 13 bd 48 36 90 a1 3d 77 c0 bb 9f 8e 9f b9
       -0.036078617 -9.772188e-19 -0.0058735893 -0.00030433104

fc2.weight f4 [84, 120]
000000 3e f2 1a b7 c8 10 dd 37 24 3d db 25 07 29 37 2e
       -9.235517e-06 2.6353067e-05 3.8031875e-16 4.1645822e-11
000010 51 5a 88 38 f8 6f 0e 34 b3 60 0f b8 dc 53 e9 b9
       6.501808e-05 1.3265515e-07 -3.4183915e-05 -0.00044503703
000020 fe 87 94 35 4d ea c4 35 b4 45 a9 36 c6 15 cd b2
       1.1066438e-06 1.4671328e-06 5.044707e-06 -2.3875042e-08
000030 19 ca bf 24 3b 26 54 b1 88 b4 43 39 6e 33 13 ba
       8.317541e-17 -3.0871792e-09 0.00018663902 -0.00056152686
000040 72 1d 88 ba 6f 8e 55 39 f9 0a d9 1c b4 da 87 ba
       -0.0010384752 0.00020366324 1.4362692e-21 -0.0010364861
000050 bc 73 5f 92 07 46 d6 38 08 ac 51 35 32 73 68 b1
       -7.0509046e-28 0.00010217359 7.8108906e-07 -3.3825924e-09
000060 b1 9a f9 2e 9c b1 bf af e8 26 66 b9 1d e8 7b 39
       1.1350688e-10 -3.4868897e-10 -0.00021949003 0.00024023694
000070 96 93 68 b1 58 4e d3 33 74 25 a1 1f 87 63 c8 1c
       -3.3844336e-09 9.839704e-08 6.8248113e-20 1.3260617e-21
000080 e4 48 94 b0 69 d3 f9 ae c4 42 37 b9 92 73 0f b9
       -1.0789134e-09 -1.1360763e-10 -0.00017477112 -0.00013680596
000090 bb 29 d9 37 17 bc 4e b1 52 19 bd 39 21 1c 58 37
       2.5887848e-05 -3.0083862e-09 0.00036067754 1.28811525e-05
0000a0 fc 1a 46 af 95 38 09 39 f6 fe 39 af 33 c4 24 34
       -1.8017582e-10 0.00013086417 -1.6916232e-10 1.5345067e-07
0000b0 04 81 97 b4 86 0d 06 37 e3 ce 6c b7 6a 41 e4 b8
       -2.8219813e-07 7.990171e-06 -1.4114866e-05 -0.000108840715
0000c0 d3 a2 a0 39 00 6c 3b ba e7 45 5d 25 56 ec 84 38
       0.00030638892 -0.0007149577 1.9192378e-16 6.3382715e-05
0000d0 2d 5e 08 07 5b 50 ca b6 b9 ed ac 39 66 a5 7a 33
       1.0259179e-34 -6.0294237e-06 0.00032983514 5.835809e-08
0000e0 5d 5b 04 b8 d5 c9 d2 39 32 ab f3 37 dd 1c 46 b0
       -3.155634e-05 0.00040204698 2.9047576e-05 -7.2073e-10
0000f0 9e df fb b3 45 db 2d b6 df 4b d9 b2 ae 4c ca 34
       -1.1728774e-07 -2.590664e-06 -2.5296627e-08 3.7681224e-07
000100 b0 48 22 90 b3 21 c8 17 82 b8 16 0f ae ff f9 b7
       -3.2004863e-29 1.2933204e-24 7.431106e-30 -2.9802173e-05
000110 17 53 37 ad 94 52 0f 3a 58 98 73 a5 82 f0 cd b5
       -1.0420795e-11 0.0005467322 -2.1128506e-16 -1.5343687e-06
000120 5b ce 59 9b 62 dd 7a 39 0d 4c 23 39 dd 73 71 98
       -1.8016496e-22 0.0002392433 0.00015573222 -3.1207016e-24
000130 6c 48 23 b8 90 7c 30 37 16 c0 4e ba 10 6f e2 b9
       -3.8929677e-05 1.0519419e-05 -0.00078868994 -0.00043188827
000140 61 bb 47 39 14 af b3 a5 e9 b2 c6 2a 28 42 db b9
       0.00019047923 -3.1170188e-16 3.529601e-13 -0.00041820225
000150 58 b2 37 38 82 58 2c 39 f7 65 7a ba ea a8 d4 31
       4.3796696e-05 0.0001643617 -0.0009551937 6.1892154e-09
000160 c4 27 4a af 56 bf 85 b9 70 a4 b4 39 11 1a 12 ba
       -1.838592e-10 -0.00025510293 0.0003445479 -0.0005573342
000170 3b b1 d9 a5 3a 2f 64 35 27 de 36 b3 be 8d f5 b0
       -3.7763595e-16 8.500534e-07 -4.2577224e-08 -1.7866382e-09
000180 91 1c b8 22 a6 55 01 93 c4 bc 14 b7 8a 46 60 ac
       4.9903546e-18 -1.6324317e-27 -8.865438e-06 -3.1871472e-12
000190 63 11 7d 33 86 8d 69 32 87 0a db b2 95 23 89 b7
       5.8921966e-08 1.3594564e-08 -2.5499743e-08 -1.6348242e-05
0001a0 f0 80 d5 b6 98 e4 d3 b6 61 27 30 34 25 ae 27 29
       -6.362905e-06 -6.314902e-06 1.6405603e-07 3.7232495e-14
0001b0 31 6a 07 b1 91 11 13 93 71 f0 68 36 d6 f0 8a 30
       -1.9705448e-09 -1.856267e-27 3.471065e-06 1.0109271e-09
0001c0 91 b7 cd b9 9a c1 00 39 49 20 42 b9 48 15 a7 84
       -0.00039237415 0.00012279153 -0.00018513309 -3.9281055e-36
0001d0 09 b3 17 39 4a 93 d7 10 95 03 0c 3a 7c 41 24 b6
       0.00014467178 8.502948e-29 0.000534111 -2.4476021e-06
0001e0 d7 32 39 3c f8 49 00 3d 8e d9 a2 3a 35 d9 64 b8
       0.011303625 0.031320542 0.0012424455 -5.4561726e-05
0001f0 a3 6c 9c 3c 7f e9 e1 b9 23 43 80 bd b5 d0 a2 3c
       0.01909477 -0.00043089312 -0.06262805 0.01987491
000200 7f e9 42 38 04 39 a7 ba 2d 81 74 bb 40 5c 83 b7
       4.6470665e-05 -0.0012758081 -0.003730844 -1.5659374e-05
000210 10 02 cf 3b 05 aa 01 3a 26 30 a6 bb 8c 27 44 3d
       0.0063173845 0.00049462944 -0.0050716577 0.047889277
000220 8f 6a 78 bd 80 27 c3 3d 3f cf bf b1 c6 03 17 3d
       -0.060648497 0.095290184 -5.5823928e-09 0.036868833
000230 d1 69 28 39 82 5e a1 3d 89 c0 8b 39 dc e5 a1 35
       0.00016061148 0.07879354 0.00026655596 1.2062333e-06
000240 b9 ef 6a ba 65 15 b8 34 60 54 ab 39 f3 ee 20 bd
       -0.0008962113 3.4288237e-07 0.00032678526 -0.03929038
000250 fa 02 e8 39 74 27 00 38 d8 24 48 bb 5c 16 8a 38
       0.00044252706 3.055432e-05 -0.0030539539 6.5845175e-05
000260 40 cf 41 b5 e3 07 96 33 e4 96 37 bc 27 d7 f5 bd
       -7.219969e-07 6.986354e-08 -0.011205409 -0.12003928
000270 f4 26 ce 3d 85 75 9e 39 fa a3 c0 bd 10 6b 93 bd
       0.100660235 0.00030223667 -0.09406276 -0.07198155
000280 98 65 df b1 98 99 0a 3e 2f d2 9a bc b1 ea be 3c
       -6.501704e-09 0.13535154 -0.018899051 0.023305269
000290 ad 76 15 b9 cf 9c 6b bd 35 ef 3f ba f1 93 b1 ba
       -0.00014253957 -0.05752259 -0.00073217164 -0.0013548118
0002a0 07 f6 3f bd cd 33 ba bd 47 31 32 3c 15 11 04 bd
       -0.04686549 -0.090919115 0.010876006 -0.032242853
0002b0 83 0f 4c b8 55 7e a6 3b 7f 51 60 ba b6 d5 ec b7
       -4.8651837e-05 0.005080978 -0.0008557066 -2.823291e-05
0002c0 55 4c df bc f4 85 3e 3e b2 ea a1 3c d9 32 01 b4
       -0.027258078 0.18605787 0.019765232 -1.203256e-07
0002d0 8f fd f0 3b 1a 5a 04 3b 32 6e 19 37 d1 88 07 38
       0.0073544453 0.0020195306 9.1451675e-06 3.231393e-05
0002e0 09 e7 80 3a e2 21 77 ba 1b 8e 78 b9 ed 57 a3 3d
       0.0009834479 -0.0009427351 -0.00023704061 0.07975755
0002f0 c7 95 62 35 2f 82 de bc 1e 31 20 b9 4d 17 cf 3a
       8.4409515e-07 -0.027161686 -0.00015277087 0.0015799791
000300 ad d8 75 b7 76 ee a0 bc c5 c3 9f 3c c0 3b 07 bc
       -1.4653587e-05 -0.019644957 0.01950253 -0.008253992
000310 d4 a5 dc 3c e2 7d 7f bd 94 50 88 3d 89 61 01 3d
       0.026934542 -0.06237591 0.06655994 0.031587157
000320 44 0c 38 3c c8 b3 bb 3b 47 27 06 bc d4 f6 b8 bc
       0.011233393 0.0057282187 -0.008188075 -0.022578634
000330 89 ac 32 3e f9 6f 8a ba a3 57 36 3e 4c 52 51 b4
       0.1744863 -0.0010561935 0.17806868 -1.9494581e-07
000340 1f f3 80 39 db 41 3d 3e 0d 96 f3 bc 10 19 25 3d
       0.00024595202 0.18482153 -0.029734636 0.040307105
000350 ca 32 03 af e2 b4 00 3c 64 5b 0c b8 07 c5 b6 35
       -1.1932424e-10 0.007855626 -3.3463715e-05 1.3617399e-06
000360 c2 71 38 bc da d6 14 3b 98 b6 82 39 a4 0d f4 37
       -0.011257591 0.002271107 0.00024931575 2.9093419e-05
000370 fa 86 2d 38 1a 60 80 b6 d7 50 04 3c a0 f0 42 bb
       4.137212e-05 -3.825885e-06 0.008075914 -0.0029745474
000380 b0 5b 2b 3b 73 6c 74 bc 1e e7 1d b8 19 ee a9 b4
       0.002614718 -0.014918434 -3.764696e-05 -3.1651942e-07
000390 b0 bb bd 38 fd 47 b2 ba 6b fb 8e 37 6d 41 b6 35
       9.047182e-05 -0.0013601776 1.7044795e-05 1.3579098e-06
0003a0 1e 87 3f 3a 8d fd 8c 3c c8 fd 7d bc 90 57 1f 36
       0.0007306206 0.017210746 -0.015502401 2.3743814e-06
0003b0 f6 fd dd 3c 26 2c f9 37 a7 5a d5 bc 45 b5 5c 3b
       0.027098637 2.9703671e-05 -0.026044203 0.003367738
0003c0 a8 f7 b2 ba 94 66 27 bd ba 5c 43 39 8e aa e1 33
       -0.001365413 -0.04086931 0.00018631193 1.0508403e-07
0003d0 7e 22 57 3d 8f 56 94 37 59 b3 e1 bc a3 e5 64 bd
       0.05252313 1.7683282e-05 -0.02755134 -0.05588306
0003e0 87 bd da 37 91 c7 f3 ba d8 7d 93 ba 90 57 0a 38
       2.607588e-05 -0.0018598904 -0.0011252714 3.2983313e-05
0003f0 34 76 ed b7 90 0b a5 b6 f9 da ca 3c 13 d5 73 bd
       -2.8307644e-05 -4.9187292e-06 0.024762617 -0.059529375

fc2.bias f4 [84]
000000 18 bb 54 39 a8 c6 df 3d f1 ca e3 bc 5d 4e b3 3d
       0.00020287593 0.109265625 -0.027806731 0.08755181
000010 bb 96 41 b2 89 42 08 bd d5 76 86 b3 9e f2 26 36
       -1.1268351e-08 -0.033266578 -6.261477e-08 2.487715e-06
000020 5a ec 11 3e 23 9d 16 3d 10 40 9f ba f1 cd dd 3b
       0.14250317 0.03677095 -0.0012149829 0.006768935
000030 26 25 d0 bb 96 8d 78 3d 89 ff 41 3d 44 74 c0 3b
       -0.0063520847 0.060681902 0.047362838 0.005873235
000040 fd 29 91 b3 22 61 86 bc 2e 73 f5 3d 46 16 68 b6
       -6.759726e-08 -0.016403738 0.119848594 -3.4583659e-06
000050 c7 8d 66 bb 2e e2 1c 3c fc 54 db 3c 6d a9 81 3d
       -0.003517972 0.00957541 0.026773922 0.063311435
000060 ef 7e d5 3a 2f 73 12 3c 94 a3 15 3a cf 03 33 3d
       0.001628844 0.008938595 0.0005708274 0.043704804
000070 6a fe 31 32 11 28 09 bd 36 52 60 b1 34 ff 59 3c
       1.0360603e-08 -0.033485476 -3.2643022e-09 0.013305474
000080 0d 14 8e b5 b4 e0 9a 33 3b 38 1e 3d 8d 0e af bc
       -1.058566e-06 7.212057e-08 0.038627844 -0.021369243
000090 a7 0f a2 ab 2b 17 41 3b c1 b2 8a 3c 12 ae 92 bc
       -1.1515137e-12 0.0029463272 0.01693094 -0.017905269
0000a0 68 48 66 bc 9b 11 0e 3c d3 5d 80 b9 6e db c9 b6
       -0.014055349 0.00867119 -0.00024483967 -6.015812e-06
0000b0 1d 31 de ba 40 02 c5 bc b0 e7 81 3c de cb a4 b5
       -0.0016951893 -0.024048924 0.015857548 -1.2278285e-06
0000c0 3b 0d 06 bd 19 33 b2 3c 58 c6 91 bd c3 6d 57 3a
       -0.03272746 0.02175288 -0.07117909 0.0008217955
0000d0 03 2f 3f bd a7 2c 60 3d 1c aa ac 3c 74 b5 4b 3b
       -0.046675693 0.054730084 0.021077208 0.0031083496
0000e0 64 7d ba b5 54 be b1 3d e0 09 e2 bb 7a c0 2c b3
       -1.3894573e-06 0.0867888 -0.00689815 -4.0221927e-08
0000f0 7c af 55 36 f7 d9 93 37 f1 33 c8 3c 76 20 b0 b3
       3.1841619e-06 1.7625263e-05 0.02443883 -8.201543e-08
000100 95 5f d6 35 eb 4d c9 b6 d6 38 18 3d bc 7a 2a b4
       1.597206e-06 -5.9993376e-06 0.037163578 -1.5877134e-07
000110 11 49 a5 bc 15 f4 82 b9 8b 42 5d bd e8 a2 f5 31
       -0.020176442 -0.00024977388 -0.05401854 7.1489588e-09
000120 fa f3 f2 b3 cb 4a fc 39 d8 a6 33 3d e7 a2 3c bd
       -1.1313382e-07 0.0004812091 0.043860286 -0.046053793
000130 9b d7 c8 bc d9 88 58 bc 9e aa 96 3d 16 6c e0 3c
       -0.024516871 -0.013216221 0.073567614 0.02739529
000140 9f 2e d9 bc 06 81 a5 31 66 8b 28 b6 48 ef 5d 38
       -0.026511488 4.8168003e-09 -2.5115091e-06 5.2913354e-05

fc3.weight f4 [10, 84]
000000 54 a7 74 38 fd ec 04 be 16 8c 00 3e 76 67 18 bd
       5.832997e-05 -0.12981029 0.12553439 -0.037208043
000010 68 f8 81 b3 4c ae 9b bd 55 42 da 33 34 81 c0 36
       -6.0522154e-08 -0.07601604 1.0163482e-07 5.737087e-06
000020 bc 2e 2e 3e 7c 81 aa 3e 0e 77 18 bd dd c9 ab bd
       0.17010015 0.33301914 -0.037222914 -0.08388112
000030 ce 26 f2 bd f5 bf 10 3d e5 52 64 bd 97 55 06 bd
       -0.11823808 0.035339314 -0.055743117 -0.03279647
000040 44 a3 39 b4 a0 d4 18 be 0e f0 2c be e5 06 c9 35
       -1.7288863e-07 -0.1492486 -0.16888449 1.4977674e-06
000050 60 6c 13 39 1a f3 7c 3e 80 0b ce bc 20 32 e8 bd
       0.00014059385 0.24702111 -0.025151968 -0.113376856
000060 8f 54 66 3b 02 13 7f 3e ce 74 43 bd ed e6 ac 3d
       0.0035145616 0.24909595 -0.047718816 0.08442483
000070 60 17 ae b3 17 ff 01 3d 51 77 1d b3 ad 22 ec 3d
       -8.106758e-08 0.031737413 -3.666293e-08 0.115300514
000080 64 ab c5 35 59 89 9c b5 24 f1 91 bd f0 1f f4 3d
       1.4727525e-06 -1.1662879e-06 -0.07126072 0.11920154
000090 89 71 13 ba 14 df b3 3c ef 38 93 3e be 13 8b bc
       -0.0005624523 0.021956958 0.28754374 -0.016977187
0000a0 f5 0f b7 bd 1a 3b 3b bc a1 4a 85 39 68 d4 3b b6
       -0.089385904 -0.011427665 0.0002542334 -2.7988808e-06
0000b0 92 c3 89 bb 50 c6 15 3e bc b5 e1 bd 4f df 87 b6
       -0.004204222 0.14626431 -0.11020991 -4.04931e-06
0000c0 87 53 05 bd 49 1d 34 3c 03 87 ad 3e 7a e9 98 ba
       -0.03255036 0.01099331 0.33892068 -0.0011666261
0000d0 3e 68 25 bd 2a 58 9e bd d3 38 22 be f6 a6 be bc
       -0.040382616 -0.0773166 -0.15841989 -0.023272973
0000e0 46 2e 16 36 49 11 4f be 32 cd d8 bc d2 e6 58 b2
       2.2378676e-06 -0.20221438 -0.026465032 -1.2625337e-08
0000f0 fc 34 ee 36 84 ee 93 b7 ec 1f 8b 3e a8 ad d1 34
       7.099121e-06 -1.7634833e-05 0.27172792 3.9055635e-07
000100 68 64 23 36 5b e4 91 b5 d8 6e 04 be 03 a6 9e b4
       2.4347337e-06 -1.0869802e-06 -0.12932909 -2.9550583e-07
000110 7e 98 ac bd 7a 81 59 bc ea b5 83 3d b8 20 5b 2f
       -0.08427523 -0.0132754985 0.06431182 1.9929558e-10
000120 4e 6a 7c b5 c0 fa 8f 39 2c b7 20 bd 93 c9 95 3e
       -9.403201e-07 0.0002746191 -0.039237186 0.2925535
000130 cf c4 aa bd 83 88 54 bd 30 ce 80 bd cf cd 26 be
       -0.083383195 -0.051888 -0.06289327 -0.16289447
000140 46 a5 20 3c 6a 06 31 32 87 82 7c 35 48 93 66 b9
       0.009805029 1.0304214e-08 9.406726e-07 -0.00021989376
000150 10 47 42 ba b2 36 9d bd d2 35 1a 3e 00 7e 67 be
       -0.0007411102 -0.07676448 0.15059593 -0.22606659
000160 1e 3d 15 34 33 ad c0 3e 61 0d fc 32 28 b0 c9 b6
       1.389894e-07 0.3763214 2.9342745e-08 -6.010774e-06
000170 80 9c 20 be 53 12 3e be 19 d5 87 bd 97 a4 d4 bd
       -0.156847 -0.18561678 -0.06632442 -0.103829555
000180 6f e1 02 be b6 95 71 be 91 a3 57 bd 8b cb 76 3e
       -0.12781309 -0.23592266 -0.052646223 0.24101083
000190 f2 d7 1e 34 e7 6d a5 3d 16 5f 78 bd 13 5c 0a 35
       1.4793457e-07 0.08077603 -0.060637556 5.154299e-07
0001a0 d7 b5 2b 3d 8a bd e2 bd 66 40 21 bd e7 a6 e7 bd
       0.041921463 -0.11071308 -0.039368056 -0.11311131
0001b0 43 93 f3 3b 4d 2d b4 bd dd 17 c3 bd d1 cf 20 3d
       0.0074333264 -0.08797703 -0.09526036 0.03926069
0001c0 f8 93 01 b3 80 b9 66 bd b6 77 a0 31 53 d3 8d 3e
       -3.016973e-08 -0.05632925 4.6702224e-09 0.2770029
0001d0 78 1e ea b5 ab 34 18 36 0b 35 06 be b8 72 60 3e
       -1.7443226e-06 2.2680422e-06 -0.13106172 0.21918762
0001e0 8c ba e8 38 c3 63 03 bc 11 bd 0c be 6b b1 15 3e
       0.00011097369 -0.0080193905 -0.13743998 0.14618461
0001f0 3d ab f5 bd 14 00 a3 3e b8 63 4b ba 58 cb f8 36
       -0.11995552 0.31835997 -0.00077586947 7.4146483e-06
000200 b1 e4 3e bc 85 da a9 bd b5 f6 a9 bd 51 55 09 b6
       -0.011651204 -0.082936324 -0.08299009 -2.0464252e-06
000210 86 31 62 3e a7 0a 80 bd 33 ce 0a 3c 57 18 81 bb
       0.22089204 -0.06252032 0.008472013 -0.003939669
000220 1e af ba 3e a6 7c 98 bd bc 64 fb bd 9e 9c 0c bd
       0.3646173 -0.0744565 -0.12275073 -0.03432905
000230 ed f0 3a 36 b0 51 18 be 2e df 2f be 27 38 83 33
       2.7856397e-06 -0.14874911 -0.1717498 6.110377e-08
000240 c3 3c 4a b6 eb ed 1a 36 cb 0f 91 bb 1f 87 59 33
       -3.0135714e-06 2.3086275e-06 -0.0044269315 5.064714e-08
000250 84 f9 bc 36 3f c3 da b6 fc 07 f2 bd a3 63 27 35
       5.631884e-06 -6.519636e-06 -0.11817929 6.235734e-07
000260 58 d0 7f 3e 0f 07 b8 bd 0d de 95 3d b4 cd b3 32
       0.2498182 -0.08985721 0.073177435 2.0931886e-08
000270 1c 2a 8a 34 4e df 06 ba 26 d7 b7 bd e1 53 d6 bd
       2.5735142e-07 -0.00051449693 -0.08976583 -0.104652174
000280 2e 73 66 3e ca a6 52 bd a2 4e 4e bc 79 97 a4 bd
       0.22504875 -0.051428594 -0.01259199 -0.080367036
000290 4e dc e8 3d 52 8c 34 32 d4 c1 4c 35 b9 99 aa b7
       0.11370145 1.0509284e-08 7.627798e-07 -2.0337162e-05
0002a0 88 4d 6c ba 75 3e b6 3d 62 ef 64 bd b1 6e a0 bd
       -0.00090142386 0.088986315 -0.055892356 -0.07833613
0002b0 00 53 0a b4 5d dd c5 3c 6e b6 50 32 82 6d 81 35
       -1.2882447e-07 0.024153406 1.2148673e-08 9.64312e-07
0002c0 12 27 89 3e c5 6e 77 3e 04 50 23 be 4d a1 35 be
       0.2678762 0.24163349 -0.15948492 -0.17737313
0002d0 08 b7 1b be 1f 0c da bd c2 d6 2f bc 8f eb 9d bd
       -0.1520654 -0.10646843 -0.010732355 -0.07710945
0002e0 c5 2f 8d b4 4c d7 80 bd 84 5d 68 3e 36 9e e7 b3
       -2.6298054e-07 -0.062910646 0.22691923 -1.0785554e-07
0002f0 41 36 d6 3b 77 a8 1f 3f c2 a3 78 bd b2 24 60 3e
       0.0065372293 0.6236643 -0.060703047 0.21888998
000300 be d2 2f 3c 93 65 b3 bc 38 61 1b 3e 91 e5 e7 3d
       0.010731397 -0.02189902 0.15173805 0.11323083
000310 46 98 ac 32 f7 05 b3 bd e4 74 96 b2 e8 5c ce bd
       2.0092681e-08 -0.08741372 -1.7515454e-08 -0.10076314
000320 02 7c 34 b5 09 c4 86 35 3b 1d 09 3d 49 ac a2 bd
       -6.723568e-07 1.0040832e-06 0.033475142 -0.07943017
000330 0c 0a 0d 3a f2 cb ef ba 33 2b 06 be d6 30 4a 3c
       0.000538022 -0.0018295033 -0.13102417 0.012340745
000340 74 c0 1a 3e a7 be c5 bd 4c 85 64 3a c4 84 b2 b6
       0.15112478 -0.09655505 0.00087173725 -5.3202693e-06
000350 03 ef 80 bc f5 7b ef bd fe c1 70 be 4b 10 bd 33
       -0.01573897 -0.11693565 -0.23511502 8.803962e-08
000360 7d 9e 59 bc 54 4e f0 bc 50 f1 07 be a0 03 93 3b
       -0.013282415 -0.029334225 -0.13275647 0.004486516
000370 4f 45 d4 3c 89 9a a4 bd 48 a3 d1 3a 7b f0 5a 3c
       0.025911955 -0.08037288 0.0015994096 0.013362999
000380 6b 00 1d b4 ff 17 5e bc 49 f8 0f 3c 1d 27 d4 33
       -1.4621916e-07 -0.013555526 0.008787223 9.879134e-08
000390 3b c2 6b 35 9a 55 01 b8 d6 7c fb bc 50 38 b4 b4
       8.7826965e-07 -3.083572e-05 -0.030699175 -3.3568585e-07
0003a0 90 64 25 b7 2a b1 36 37 1a c2 50 3e 64 9f b0 31
       -9.85818e-06 1.0889295e-05 0.20386544 5.1403948e-09
0003b0 a0 dd 25 bd 01 f2 2b bc e8 b9 9b bd c2 3b d6 b2
       -0.04049456 -0.01049471 -0.07603818 -2.4940054e-08
0003c0 fe 9f b7 35 cc f3 30 ba 9a 51 2a bd 2a a2 e2 3c
       1.3681126e-06 -0.0006750196 -0.041581728 0.027665216
0003d0 86 a1 48 3d 89 3f 13 bc 55 e4 06 be 03 9d 43 3e
       0.048982166 -0.008987316 -0.1317304 0.19102864
0003e0 95 68 98 bd 78 b6 d3 33 ba bb 6e b5 d6 0f cb 38
       -0.074418224 9.858644e-08 -8.893509e-07 9.682744e-05
0003f0 2a a1 b4 b8 3e cb 20 3d cb 07 85 bd f5 a9 0c bd
       -8.613088e-05 0.039256327 -0.06495627 -0.03434177

fc3.bias f4 [10]
000000 dd 27 85 bd d8 79 d2 bd 7b cd 64 3d 01 6f 28 bc
       -0.06501744 -0.10277146 0.055860024 -0.010280372
000010 c7 65 3b 3e ac 5a 7b bc f4 49 f5 bb 0b 0a a0 bd
       0.18300544 -0.015341442 -0.0074856225 -0.078144155
000020 56 17 b4 3d 52 99 3f bd
       0.087935135 -0.046777077
