examples/classification/result/epoch50.ckpt (torch_old, 748571 bytes, 30 tensors)

conv1.weight f4 [6, 3, 5, 5]
0.03937366 -0.07198769 -0.00419571 0.030177707 0.05872124 0.12269631 0.04166227 0.12766087
0.15510422 0.03736004 0.22082943 0.35543174 0.45078084 0.22688305 0.0132132 -0.08574984
-0.0959762 -0.11521997 -0.27889863 -0.18022208 -0.121450804 -0.21198076 -0.18119039 -0.17596231
-0.0029701504 -0.0072814142 -0.17341 -0.11772602 -0.08503635 0.005054413 0.035159405 -0.07535813
0.016108446 0.031123456 -0.060517985 0.17330201 0.3097915 0.41067007 0.15879583 -0.058126524
-0.074622564 -0.13404095 -0.14197353 -0.31123808 -0.18814401 -0.050498016 -0.19821936 -0.1551818
-0.11630528 0.11305858 -0.01574658 -0.13044402 -0.087187946 -0.059966575 0.06279968 -0.032396864
-0.14263564 -0.08729252 -0.0033713614 -0.0057991925 0.102646396 0.21873055 0.3092712 0.16646312
0.043034837 -0.055111397 -0.06577937 -0.06636709 -0.16739103 -0.027644591 0.03502059 -0.049083658
0.006607835 0.06460568 0.25319758 -0.04247605 -0.089408144 -0.06040416 -0.031301327 -0.0069570974
-0.12017741 -0.125302 -0.077977665 -0.05747177 -0.09303946 -0.18720557 -0.15891775 -0.10065248
-0.0850874 -0.12745158 -0.15131193 -0.13936965 -0.06258349 -0.061045654 -0.08540492 -0.083233275
-0.10682427 -0.034247495 -0.0403799 -0.053037688 0.010120432 -0.01257363 0.00042086033 -0.031780325
-0.08457251 -0.0016503703 0.044851627 0.079591505 0.034343578 -0.10031598 -0.061400946 0.036205545
0.09573359 0.044355426 -0.09866509 -0.06471676 0.014794774 0.10462779 0.04519925 -0.072569355
-0.07364117 -0.05359383 0.035110872 -0.014415431 -0.09717038 0.1558656 0.15742621 0.16292876
0.09658831 -0.029242389 0.13355714 0.21166247 0.2427588 0.16688631 -0.032502856 0.060090873
0.19304134 0.25298804 0.1737793 -0.017327495 0.04538114 0.16750053 0.26485974 0.1844639
0.022186644 0.014925891 0.074055195 0.17389427 0.10773141 -0.013290428 -0.06699524 -0.101289876
0.075044714 0.09251796 -0.036322013 -0.026867134 -0.26544672 -0.21694382 0.0070764567 0.076127544
0.15268213 -0.064599544 -0.32691112 -0.2647345 -0.060052056 0.154072 0.29040197 0.07989848
-0.107035294 -0.08351693 -0.050531875 0.13939026 0.22966684 0.14985575 0.05523376 -0.096513145
-0.11429874 0.08850923 0.13479929 0.028017312 -0.037190415 -0.24614705 -0.17521031 0.06552208
0.15507524 0.13589005 -0.04780119 -0.28204572 -0.20591962 0.012509825 0.10576999 0.26410323
0.07602986 -0.08867435 -0.060460143 -0.12230314 0.07995142 0.18495731 0.11969259 0.023635387
-0.041912466 -0.07240332 0.09614233 0.10945647 -0.027656415 -0.0024767704 -0.22188789 -0.16618972
0.03801708 0.08973305 0.15122482 -0.04578546 -0.2767997 -0.21940985 -0.032441963 0.12660079
0.2583469 0.07573053 -0.09273082 -0.08695142 -0.07644085 0.09748819 0.17818911 0.115055904
0.004275363 0.06554294 -0.08620573 0.06442251 0.0034609316 0.0014599673 0.09962733 -0.30469558
0.21716407 0.10336521 -0.14676511 0.11200146 -0.41200694 0.32436103 0.2316703 -0.2723021
0.058547076 -0.31125084 0.2766823 0.1475646 -0.24470815 0.058594998 -0.14460345 0.14888471
0.029968288 -0.07246016 0.05264856 -0.11907935 0.08862283 0.043788604 -0.021248301 0.07471052
00000000: 4646 213d 486e 93bd 2b7c 89bb 3d37 f73c
00000010: af85 703d 3448 fb3d 0ea6 2a3d 88b9 023e
00000020: a4d3 1e3e d706 193d 1c21 623e 26fb b53e
00000030: bfcc e63e 0854 683e 2d7c 583c 9d9d afbd
00000040: 2c8f c4bd 73f8 ebbd cdcb 8ebe 238c 38be
00000050: 33bb f8bd 7c11 59be f989 39be 772f 34be
00000060: dba6 42bb ee98 eebb 6492 31be 571a f1bd
00000070: 8a27 aebd 7d9f a53b 4f03 103d 5d55 9abd
00000080: dcf5 833c 9ef6 fe3c b5e1 77bd 1576 313e
00000090: fe9c 9e3e 5943 d23e 609b 223e 1416 6ebd
000000a0: b7d3 98bd 0842 09be 8261 11be 995a 9fbe
000000b0: d3a8 40be 02d7 4ebd 04fa 4abe fae7 1ebe
000000c0: 7631 eebd 428b e73d f9fe 80bc 1e93 05be
000000d0: 988f b2bd 839f 75bd 1e9d 803d 93b2 04bd
000000e0: 140f 12be 6cc6 b2bd 0ff2 5cbb 2707 bebb
000000f0: 4638 d23d e7fa 5f3e cb58 9e3e 4f75 2a3e
00000100: 4c45 303d 7dbc 61bd 56b7 86bd 78eb 87bd
00000110: 8e68 2bbe e976 e2bc c071 0f3d f20b 49bd
00000120: 8a86 d83b fc4f 843d 1da3 813e 5efb 2dbd
00000130: 9e1b b7bd 5a6a 77bd d235 00bd 5df8 e3bb
00000140: 931f f6bd 2b4f 00be c1b2 9fbd 8567 6bbd
00000150: 798b bebd d1b2 3fbe 56bb 22be e322 cebd
00000160: 4e42 aebd ab82 02be 84f1 1abe ebb6 0ebe
00000170: c62b 80bd 020b 7abd c6e8 aebd 3576 aabd
00000180: afc6 dabd 1a47 0cbd 6565 25bd 0c3e 59bd
00000190: 2bd0 253c a001 4ebc eba6 dc39 162c 02bd
000001a0: 5a34 adbd 3d51 d8ba 57b6 373d df00 a33d
000001b0: daab 0c3d 7772 cdbd 8f7f 7bbd 444c 143d
000001c0: f90f c43d 09ae 353d ec10 cabd 388a 84bd
000001d0: c865 723c 1847 d63d d922 393d 3e9f 94bd
000001e0: 2fd1 96bd 3485 5bbd 6bd0 0f3d b32e 6cbc
000001f0: 4401 c7bd 3b9b 1f3e 5634 213e ccd6 263e
00000200: 18d0 c53d bc8d efbc 34c3 083e 0cbe 583e
00000210: c395 783e 3fe4 2a3e b721 05bd d921 763d
00000220: a1ac 453e a687 813e 33f3 313e 64f2 8dbc
00000230: 93e1 393d 4285 2b3e b29b 873e 1be4 3c3e
00000240: c4c0 b53c b98b 743c 40aa 973d 5711 323e
00000250: 49a2 dc3d 18c0 59bc cd34 89bd 1171 cfbd
00000260: 0bb1 993d 0e7a bd3d 64c6 14bd 7718 dcbc
00000270: a2e8 87be 8526 5ebe 9fe1 e73b c2e8 9b3d
00000280: b458 1c3e c44c 84bd e560 a7be 488b 87be
00000290: 25f9 75bd 0dc5 1d3e 91af 943e d0a1 a33d
000002a0: 5235 dbbd ed0a abbd 83fa 4ebd 52bc 0e3e
000002b0: c92d 6b3e c973 193e cc3c 623d afa8 c5bd
000002c0: 7515 eabd 5444 b53d d308 0a3e 9084 e53c
000002d0: fa54 18bd f90d 7cbe 556a 33be 7130 863d
000002e0: 0bcc 1e3e c326 0b3e 2ecb 43bd 4c68 90be
000002f0: 98dc 52be 02f6 4c3c f09d d83d 8a38 873e
00000300: 8bb5 9b3d e69a b5bd 0ea5 77bd 127a fabd
00000310: 92bd a33d 7365 3d3e 6321 f53d 009f c13c
00000320: 68ac 2bbd 3148 94bd 45e6 c43d b72a e03d
00000330: b58f e2bc 5051 22bb 9436 63be a32d 2abe
00000340: ccb7 1b3d f6c5 b73d aeda 1a3e 8989 3bbd
00000350: b1b8 8dbe faac 60be dde1 04bd a3a3 013e
00000360: 0b46 843e 9c18 9b3d a8e9 bdbd 9613 b2bd
00000370: 058d 9cbd e3a7 c73d 3577 363e 6ea2 eb3d
00000380: 5818 8c3b 603b 863d a18c b0bd f3ef 833d
00000390: ccd0 623b 605c bf3a 6a09 cc3d 0f01 9cbe
000003a0: 4260 5e3e 24b1 d33d 9849 16be 0561 e53d
000003b0: 93f2 d2be a612 a63e fb3a 6d3e 2e6b 8bbe
000003c0: 0fcf 6f3d 455c 9fbe 4da9 8d3e 2d1b 173e
000003d0: c694 7abe 4f01 703d ed12 14be 3c75 183e
000003e0: 0e80 f53c fe65 94bd 04a6 573d e0df f3bd
000003f0: e37f b53d ae5b 333d eb10 aebc d401 993d

conv1.bias f4 [6]
-0.29056782 0.38560665 0.23838459 -0.00919406 -0.059753038 0.32593447
00000000: 4ec5 94be 3c6e c53e 171b 743e afa2 16bc
00000010: 9abf 74bd e2e0 a63e

conv2.weight f4 [16, 6, 5, 5]
0.070573315 0.022270098 -0.042888474 0.011054196 -0.021552304 -0.0042783725 0.02722182 0.07226731
0.04016412 -0.021574074 0.007528523 0.040285796 6.215733e-05 0.006587437 0.01684942 -0.026828827
0.01272409 0.033104263 0.008896767 0.0002816743 0.027252758 0.03162479 0.015151656 -0.014273574
0.013321062 -0.04889422 -0.12356816 -0.17786592 -0.13517079 -0.055770986 -0.035403848 -0.10099476
-0.0927818 -0.026869236 0.016897721 -0.049873594 -0.086119056 -0.042705603 -0.0026607087 0.010001304
-0.03683968 -0.035476252 0.008373177 -0.017371392 0.021947898 -0.011280981 0.0065537128 0.02271324
0.014192358 0.03349586 -0.061376028 -0.07446561 -0.084838614 -0.05449196 -0.059129402 -0.023498867
-0.055412263 -0.049827304 -0.045727655 -0.091630235 -0.025615303 -0.06343142 -0.039536763 -0.010640471
-0.014022521 -0.037816137 -0.018035145 0.029382478 -0.0028470762 -0.036295116 -0.0025689742 -0.002525475
-0.01135016 -0.011610816 -0.013241152 -0.0332355 -0.039817605 -0.0661295 -0.063482486 -0.021200392
0.0014447452 -0.0046711587 -0.040482517 -0.051868316 0.00644372 -0.013465068 -0.031096388 -0.039872326
-0.028612498 -0.017502984 0.015101429 -0.029556127 0.0027073112 -0.018004073 -0.03268341 0.04382367
0.038517598 -0.0013468977 0.040800594 0.005857843 -0.00228629 0.05299731 0.041572124 -0.0060858303
0.0086876415 0.06471922 0.04797665 0.018007379 0.031790785 0.039086238 0.04892728 0.030272422
0.05485988 0.058204167 0.03589585 -0.007968726 0.004566368 0.0024230878 0.033934303 -0.008555405
-0.05439091 0.004648731 0.01588222 -0.021510975 -0.0343629 0.09110799 0.14647377 0.19870247
0.16286212 0.060086843 0.15124886 0.26942104 0.24374709 0.07934232 0.016042108 0.17983279
0.15685615 0.06680539 0.07795774 0.026567148 0.10361346 0.044790495 0.064947434 0.060277645
0.042978093 0.047307752 0.023849787 0.0068864156 0.044965558 0.0265835 0.008399002 -0.013593615
-0.073384225 -0.034839246 -0.027585546 0.013733368 0.07538401 -0.01708835 -0.09441213 -0.050172735
-0.098108634 -0.1104249 0.12870607 0.12462809 -0.11496892 -0.00815977 0.0022099426 -0.04822283
0.050161984 0.057941362 -0.01091912 -0.034848504 0.0314128 0.03649199 0.024327638 -0.010232999
0.016776003 0.0023550817 -0.027777344 -0.07018269 -0.03105002 -0.02074352 0.029718118 0.0049038623
-0.019306451 -0.010371007 -0.079545386 0.018968562 0.0461071 0.0064271144 0.026945962 -0.0076362425
-0.061688475 0.02497049 0.023473574 0.036638916 0.05089336 -0.008588324 -0.01324509 0.004764025
0.0015733181 0.063444644 0.08252415 -0.07195432 -0.12439721 -0.03599428 -0.04279616 0.18016797
0.12713748 -0.16772284 0.10745991 0.08587037 -0.15208615 0.038298625 0.0211244 -0.13163728
0.12777694 0.19289778 -0.047763098 -0.16525614 -0.061112568 -0.09175364 0.059522856 0.051553253
-0.003127736 -0.03226211 0.06540735 0.0029270998 -0.014479813 -0.027620772 -0.028451903 0.044312034
0.027573315 0.028084964 0.029673466 0.039732568 -0.027390055 0.0975999 0.05411184 0.03186166
0.010291593 -0.030781817 0.014484886 0.102563635 0.06085742 -0.06514742 -0.0700914 -0.07117861
0.00059587095 0.028572062 0.120848544 -0.008704935 -0.12100739 -0.10886718 -0.09375587 0.059101008
00000000: be88 903d c86f b63c d3ab 2fbd a91c 353c
00000010: 758e b0bc 9731 8cbb 4b00 df3c e200 943d
00000020: 2283 243d 1dbc b0bc d4b1 f63b b802 253d
00000030: 765a 8238 6ddb d73b cb07 8a3c 21c8 dbbc
00000040: b478 503c 5698 073d bfc3 113c afad 9339
00000050: 2d41 df3c ff88 013d a73e 783c b5db 69bc
00000060: 9540 5a3c 4e45 48bd 4e11 fdbd 7c22 36be
00000070: 366a 0abe 1e70 64bd a003 11bd 57d6 cebd
00000080: 6204 bebd df1c dcbc 176d 8a3c 4148 4cbd
00000090: 305f b0bd 12ec 2ebd 495f 2ebb 82dc 233c
000000a0: 34e5 16bd 8c4f 11bd a62f 093c 734e 8ebc
000000b0: 14cc b33c ddd3 38bc 87c0 d63b 1e11 ba3c
000000c0: 1087 683c f432 093d 6e65 7bbd 6d81 98bd
000000d0: debf adbd f632 5fbd ac31 72bd b280 c0bc
000000e0: f8f7 62bd b717 4cbd ec4c 3bbd a2a8 bbbd
000000f0: 2fd7 d1bc 55e8 81bd 4df1 21bd 5f55 2ebc
00000100: b7be 65bc 18e5 1abd 71be 93bc 86b3 f03c
00000110: 0396 3abb 30aa 14bd 3c5c 28bb 7182 25bb
00000120: 06f6 39bc 4b3b 3ebc 6bf1 58bc f321 08bd
00000130: c917 23bd e76e 87bd 1b03 82bd 72ac adbc
00000140: 9b5d bd3a 8510 99bb ffd0 25bd df73 54bd
00000150: d725 d33b 979c 5cbc dabd febc 2a51 23bd
00000160: c264 eabc 6b62 8fbc fc6b 773c b11f f2bc
00000170: 256d 313b 477d 93bc 0adf 05bd 7380 333d
00000180: a1c4 1d3d 638a b0ba 861e 273d 26f3 bf3b
00000190: 95d5 15bb b513 593d 8847 2a3d a56b c7bb
000001a0: 9c56 0e3c 838b 843d 2a83 443d 3684 933c
000001b0: 0e37 023d e418 203d f967 483d dffd f73c
000001c0: c1b4 603d 7e67 6e3d 8707 133d 428f 02bc
000001d0: 79a1 953b abcc 1e3b b2fe 0a3d f82b 0cbc
000001e0: 01c9 5ebd 6254 983b 6e1b 823c c937 b0bc
000001f0: 1dc0 0cbd d396 ba3d 38fd 153e a978 4b3e
00000200: 54c5 263e 9f1d 763d fbe0 1a3e 8ef1 893e
00000210: d698 793e 3a7e a23d bd6a 833c 1626 383e
00000220: e69e 203e 44d1 883d 4fa8 9f3d 59a3 d93c
00000230: 4b33 d43d 3d76 373d 2903 853d b1e5 763d
00000240: cc09 303d c6c5 413d a160 c33c 71a7 e13b
00000250: ce2d 383d a4c5 d93c f89b 093c c1b7 5ebc
00000260: 784a 96bd 99b3 0ebd 15fb e1bc ec01 613c
00000270: ef62 9a3d defc 8bbc 265b c1bd ed81 4dbd
00000280: 2eed c8bd 7326 e2bd 86cb 033e 033d ff3d
00000290: d374 ebbd 8eb0 05bc afd4 103b 4d85 45bd
000002a0: a776 4d3d ec53 6d3d 1ce6 32bc 4ebd 0ebd
000002b0: b5aa 003d a078 153d c14a c73c 4fa8 27bc
000002c0: d46d 893c b757 1a3b 508d e3bc f1bb 8fbd
000002d0: 9d5c febc 51ee a9bc 6973 f33c 94b0 a03b
000002e0: 9028 9ebc 28eb 29bc b1e8 a2bd f563 9b3c
000002f0: ccda 3c3d 8b9a d23b c7bd dc3c 7239 fabb
00000300: 0ead 7cbd ea8e cc3c a74b c03c b012 163d
00000310: 8e75 503d 0bb6 0cbc ef01 59bc 8a1b 9c3b
00000320: cc37 ce3a 44ef 813d 6c02 a93d c95c 93bd
00000330: f7c3 febd bd6e 13bd 074b 2fbd f47d 383e
00000340: 5430 023e 89bf 2bbe f113 dc3d cedc af3d
00000350: 79bc 1bbe 05df 1c3d 140d ad3c eccb 06be
00000360: f5d7 023e ff86 453e 3da3 43bd e838 29be
00000370: 2c51 7abd 55e9 bbbd 3dce 733d 8129 533d
00000380: b4fa 4cbb 4625 04bd 4af4 853d 96d4 3f3b
00000390: bd3c 6dbc f544 e2bc f713 e9bc 8980 353d
000003a0: 6fe1 e13c 7012 e63c c515 f33c 9ebe 223d
000003b0: 1c61 e0bc 75e2 c73d 60a4 5d3d 5f81 023d
000003c0: 129e 283c 262a fcbc 0452 6d3c e20c d23d
000003d0: a145 793d 036c 85bd 148c 8fbd 17c6 91bd
000003e0: 3934 1c3a f50f ea3c 717f f73d 259f 0ebc
000003f0: b9d2 f7bd c2f5 debd 1403 c0bd e613 723d

conv2.bias f4 [16]
0.15451407 -0.09956153 -0.011904489 0.1305873 0.1074027 0.39495614 0.17859113 -0.39451274
0.18949817 -1.1187441e-07 -0.47744074 0.100485034 0.14537589 0.42213416 -0.14921163 -0.13107657
00000000: f038 1e3e eae6 cbbd 0c0b 43bc adb8 053e
00000010: f2f5 db3d b137 ca3e 98e0 363e 93fd c9be
00000020: cf0b 423e 9b3f f0b3 1d73 f4be 19cb cd3d
00000030: 6bdd 143e f821 d83e efca 18be f038 06be

fc1.weight f4 [120, 400]
-0.041083407 -0.030231912 0.0012336739 0.03740007 -0.0051014423 -0.011849317 -0.003005106 0.029035192
0.028581902 -0.021115579 -0.00945089 0.06557809 0.049365636 0.01640543 -0.014037401 0.02255586
0.07814711 0.056150317 0.029846117 0.0035436817 0.064289875 0.049618267 0.019402763 0.035379596
0.005435434 -0.01659069 -0.064793535 -0.08261398 -0.054242752 0.04162939 -0.009526889 -0.014582367
-0.04961231 -0.05904226 -0.024887856 -0.016974166 -0.039121576 -0.06943652 -0.06093932 -0.043388717
-0.039590828 -0.06053335 -0.0050590364 -0.06655726 -0.07935135 -0.036146853 -0.011892894 -0.019332208
-0.025416266 -0.05578539 -0.009751648 -0.029402513 0.0062781842 0.037077047 0.057172965 -0.021002045
-0.02908498 0.047472104 0.04764115 0.03561296 0.0064339675 -0.0056602955 0.021910125 0.038751893
0.039652728 -0.04631495 0.020094534 -0.01694368 0.00097522646 0.06310692 -0.056451857 0.032862097
0.00793353 0.012337341 0.07790301 -0.01403439 -0.01694544 -0.03698693 -0.004241055 0.033485714
0.022697113 0.02430269 0.010695179 -0.010544589 -0.021896444 -0.02227637 -0.007807486 0.006762227
-0.012815842 -0.03233131 -0.024469094 -0.018428909 0.015400352 -0.0020862396 -0.025776887 -0.009685543
0.00747234 0.015160405 0.023465665 0.027349528 -0.09086782 0.0059641134 0.051297363 0.0032065362
-0.0012856924 -0.06924371 -0.02927528 0.02507088 0.036366165 0.015910115 -0.042295035 -0.066556476
-0.043880392 -0.018171163 -0.00593064 -0.027021833 -0.014926567 -0.037444625 -0.034363832 0.009565725
-0.010929779 0.026854187 -0.005952986 -0.011029885 0.025114475 -0.03952959 0.017319415 0.029794762
-0.016270284 -0.032243695 0.0024374393 0.00831758 0.013146382 -0.01730729 0.0051328847 0.031206133
0.0061713476 -0.014977529 0.013195798 0.04932951 0.029182285 -0.0061082286 0.009416276 0.03162244
0.08366347 0.031502053 0.007488466 -0.0012451791 0.02714017 0.09047185 -0.031004004 -0.012503909
0.0042119687 0.022293668 -0.007679997 -0.0013026401 0.019715881 0.011344306 -0.004695283 -0.022295343
0.060435332 0.051613342 0.013130726 -0.028611485 -0.036481865 0.07355519 0.059533976 0.018381286
-0.027964143 -0.026496204 0.018755931 0.031503975 0.015408872 0.009447348 0.014553937 -0.054673232
-0.051236007 -0.024696952 -0.0041742665 0.025681568 -0.046086192 -0.050459083 -0.027129054 0.008941737
0.00877362 -0.04675593 -0.03981324 0.006410646 0.043592937 0.010818017 -0.03478182 -0.033338375
-0.031153886 -0.04116878 0.01413497 -0.057340752 -0.042559892 -0.04045625 -0.05429637 -0.015830804
0.022814447 -0.033269107 -0.019905772 -0.019808615 0.02112898 -0.0054467176 -0.00090889185 -0.03624322
-0.0037808018 -0.002224692 -0.041978326 -0.013412118 -0.023703566 -0.039756328 -0.030976985 -0.030517178
0.0022837154 0.03161851 -0.032581262 -0.05747009 -0.013734987 0.011096468 0.045799818 0.045201313
0.0019123782 7.456055e-09 -4.207044e-09 -1.6203252e-09 -7.795383e-09 -3.867611e-09 -5.5582396e-11 4.869005e-09
-5.877597e-09 -5.4496945e-09 -7.1167966e-10 6.2268535e-10 1.0667525e-08 -7.101454e-09 -2.530085e-09 -4.311766e-10
-1.82174e-09 1.6757168e-08 -2.9725006e-10 -4.1626453e-09 -1.0450851e-09 -8.605921e-09 1.0748601e-08 -1.2818326e-09
-8.070924e-09 -7.566289e-10 -0.033080474 -0.040817317 -0.019413406 0.0022590414 -0.008047593 -0.0586214
00000000: 1347 28bd eaa8 f7bc 3ab3 a13a d130 193d
00000010: 002a a7bb a323 42bc 50f1 44bb 36db ed3c
00000020: 9824 ea3c 94fa acbc e8d7 1abc ce4d 863d
00000030: 9f33 4a3d ae64 863c 21fd 65bc 11c7 b83c
00000040: 980b a03d e0fd 653d d87f f43c 1d3d 683b
00000050: 69aa 833d 863c 4b3d 8bf2 9e3c 32ea 103d
00000060: ba1b b23b 33e9 87bc 79b2 84bd 8531 a9bd
00000070: a62d 5ebd 9483 2a3d ab16 1cbc e1ea 6ebc
00000080: 4736 4bbd 4cd6 71bd 9ee1 cbbc 680d 8bbc
00000090: f23d 20bd bc34 8ebd 829b 79bd 5eb8 31bd
000000a0: fe29 22bd d1f1 77bd 46c6 a5bb 2c4f 88bd
000000b0: f682 a2bd b90e 14bd 6ada 42bc 945e 9ebc
000000c0: c635 d0bc 397f 64bd 60c5 1fbc 8add f0bc
000000d0: 3ab9 cd3b 1ade 173d 332e 6a3d 7b0c acbc
000000e0: a043 eebc 1c72 423d 5e23 433d e5de 113d
000000f0: 08d4 d23b 007a b9bb dd7c b33c 4eba 1e3d
00000100: e66a 223d bfb4 3dbd 4b9d a43c 79cd 8abc
00000110: 57a6 7f3a 333e 813d 103a 67bd 689a 063d
00000120: a3fb 013c 8f22 4a3c 9d8b 9f3d 80f0 65bc
00000130: 2ad1 8abc 9b7f 17bd 8cf8 8abb 5128 093d
00000140: 4cef b93c 6f16 c73c d53a 2f3c 36c3 2cbc
00000150: 2c60 b3bc ef7c b6bc f1d5 ffbb ac95 dd3b
00000160: 8af9 51bc d66d 04bd 6973 c8bc 39f8 96bc
00000170: c251 7c3c 4bb9 08bb 0d2a d3bc 1db0 1ebc
00000180: 88da f43b 5963 783c 113b c03c 1e0c e03c
00000190: e818 babd 9c6e c33b 2f1d 523d c024 523b
000001a0: ae84 a8ba a5cf 8dbd b6d2 efbc 7261 cd3c
000001b0: b0f4 143d ee55 823c 8f3d 2dbd c34e 88bd
000001c0: edbb 33bd b1db 94bc d055 c2bb e45c ddbc
000001d0: 8f8e 74bc 895f 19bd 17c1 0cbd 8fb9 1c3c
000001e0: d112 33bc 50fd db3c 4411 c3bb b1b6 34bc
000001f0: dfbc cd3c c8e9 21bd 72e1 8d3c 2514 f43c
00000200: 4249 85bc f711 04bd 72bd 1f3b 7646 083c
00000210: ec63 573c 05c8 8dbc c231 a83b 01a4 ff3c
00000220: 0439 ca3b 4f64 75bc 3033 583c be0d 4a3d
00000230: b00f ef3c 8927 c8bb b946 1a3c 8886 013d
00000240: c157 ab3d 4c08 013d ce61 f53b 4735 a3ba
00000250: 1055 de3c 4e49 b93d 1cfc fdbc 32dd 4cbc
00000260: 8e04 8a3b 36a1 b63c 7ca8 fbbb 59bd aaba
00000270: 3383 a13c 78dd 393c e3da 99bb b9a4 b6bc
00000280: 0a8b 773d 8368 533d 4222 573c a262 eabc
00000290: 026e 15bd 1aa4 963d e6d9 733d 5a94 963c
000002a0: 0f15 e5bc 910e d9bc 0aa6 993c 500a 013d
000002b0: 7e75 7c3c 0dc9 1a3c a373 6e3c 0af1 5fbd
000002c0: d9dc 51bd 4351 cabc 49c8 88bb 2762 d23c
000002d0: e0c4 3cbd 2fae 4ebd c03d debc 5d80 123c
000002e0: 3bbf 0f3c 2583 3fbd 3513 23bd 6510 d23b
000002f0: 828e 323d 0d3e 313c 6277 0ebd d28d 08bd
00000300: 6f36 ffbc 98a0 28bd 5c96 673c 23de 6abd
00000310: 4853 2ebd 74b5 25bd df65 5ebd 9aaf 81bc
00000320: 5de5 ba3c 3045 08bd 6e11 a3bc ad45 a2bc
00000330: af16 ad3c 617a b2bb b342 6eba c573 14bd
00000340: 54c7 77bb 23cc 11bb 77f1 2bbd 80be 5bbc
00000350: fb2d c2bc 88d7 22bd 72c3 fdbc 29ff f9bc
00000360: 63aa 153b 6982 013d ee73 05bd c265 6bbd
00000370: b608 61bc f6cd 353c 9798 3b3d 0325 393d
00000380: c4a8 fa3a 1418 0032 8d8d 90b1 20b2 deb0
00000390: 75ec 05b2 dee3 84b1 3774 74ae 394c a731
000003a0: e4f3 c9b1 0540 bbb1 01a0 43b0 9629 2b30
000003b0: 4544 3732 0d01 f4b1 badd 2db1 b60a edaf
000003c0: c760 fab0 67f1 8f32 3a6a a3af 0407 8fb1
000003d0: aaa2 8fb0 3ed9 13b2 d9a8 3832 7a2c b0b0
000003e0: 4da8 0ab2 07fb 4fb0 647f 07bd 0f30 27bd
000003f0: dd08 9fbc 6d0c 143b 0dda 03bc fe1c 70bd

fc1.bias f4 [120]
0.042710315 0.0122183645 9.711406e-06 -4.066704e-09 -0.0036077737 0.00055800966 0.007443046 0.042672172
-8.897132e-05 -6.1087366e-07 -0.00042056484 -0.013370074 -1.4151124e-05 -7.0232923e-06 0.029944496 0.07254707
-0.021145966 0.027546743 -0.0005866524 0.01076424 -1.4802668e-27 0.06460897 2.127183e-05 -0.00027257498
2.6382525e-06 0.0032320945 5.56395e-05 0.041712813 -1.2393836e-05 -1.0902761e-06 -7.3664786e-08 -0.0066498606
-2.0263708e-06 0.00015186977 -0.02720202 0.010096716 0.0925447 1.3363488e-23 -0.06483701 0.024532469
-6.569597e-08 0.045401745 -3.978167e-05 5.6018513e-07 -0.00019990436 -0.033600826 1.8815987e-06 6.254793e-05
0.01879222 -0.10483587 -0.0025418187 -0.00051550474 -9.189544e-06 -8.668548e-08 -0.02996846 -0.0018732857
-0.045213617 0.08352988 -8.293391e-18 2.5691024e-13 -0.0002263097 -0.014631509 -1.7756304e-09 4.628238e-18
-2.4476654e-05 3.349587e-07 -0.003245658 0.030259866 -1.0132619e-05 0.08306444 1.623428e-34 1.7636401e-07
-3.682279e-13 -0.0015718578 0.058552925 -2.993032e-05 0.023095803 -0.040196165 0.017742403 0.027213035
0.04234594 7.722325e-06 -8.478785e-07 0.021173505 0.07166752 0.027845215 0.085354246 -7.296773e-08
-0.00025290754 0.054353833 0.016358446 0.011632377 -1.9397758e-06 -1.36101095e-08 -2.8585633e-05 -3.4510478e-17
-0.0004985051 -1.6794988e-07 6.1760766e-05 6.9144705e-19 -7.081762e-22 1.07034286e-16 -0.00031975046 -0.010170636
-7.5898635e-05 -0.0092003895 0.00013754127 -1.8968343e-08 1.910912e-05 -0.0003530444 -5.515874e-10 -8.4813007e-07
0.0653361 0.0105194375 -0.0076147583 -5.18845e-08 -0.03452184 -0.0003070806 0.010705343 -8.271343e-05
00000000: 03f1 2e3d 892f 483c 2cee 2237 1bbb 8bb1
00000010: 6670 6cbb 6547 123a cce4 f33b 04c9 2e3d
00000020: 1d96 bab8 ebfa 23b5 427f dcb9 280e 5bbc
00000030: 9d6a 6db7 9fa9 ebb6 294e f53c 8f93 943d
00000040: 4e3a adbc b5a9 e13c 93c9 19ba 7f5c 303c
00000050: c18e ea92 b551 843d e870 b237 65e8 8eb9
00000060: d50c 3136 8cd1 533b 755e 6938 0edb 2a3d
00000070: 1fef 4fb7 9a55 92b5 a531 9eb3 13e7 d9bb
00000080: c9fc 07b6 3b3f 1f39 c5d6 debc b26c 253c
00000090: 1388 bd3d 653e 8119 44c9 84bd 51f8 c83c
000000a0: be14 8db3 2ef7 393d 3edb 26b8 a15f 1635
000000b0: 6b9d 51b9 05a1 09bd 3d8b fc35 2a2c 8338
000000c0: 24f2 993c 30b4 d6bd a494 26bb f022 07ba
000000d0: ca2c 1ab7 d927 bab3 6a80 f5bc 0a89 f5ba
000000e0: ea31 39bd b711 ab3d 6ffc 18a3 aba0 902a
000000f0: 8c4d 6db9 ffb8 6fbc 710a f4b0 79c0 aa22
00000100: 3753 cdb7 60d4 b334 1bb5 54bb 8ae3 f73c
00000110: 44ff 29b7 b01d aa3d 64ca 5707 925e 3d34
00000120: 3c4b cfaa cc06 ceba 31d5 6f3d df12 fbb7
00000130: 6933 bd3c bca4 24bd 8458 913c dfed de3c
00000140: f072 2d3d 228f 0137 c499 63b5 0f74 ad3c
00000150: 6cc6 923d a61b e43c 35ce ae3d 6fb2 9cb3
00000160: ad98 84b9 20a2 5e3d 2602 863c ba95 3e3c
00000170: 182d 02b6 e5d1 69b2 2ecb efb7 c826 1fa4
00000180: 1cae 02ba b655 34b4 8f85 8138 4314 4c21
00000190: 7b08 569c e4cd f624 2ea4 a7b9 bda2 26bc
000001a0: c52b 9fb8 3bbd 16bc f438 1039 d4ef a2b2
000001b0: 864c a037 d118 b9b9 839e 17b0 0eab 63b5
000001c0: efce 853d b859 2c3c 3985 f9bb 9cd7 5eb3
000001d0: c666 0dbd a9ff a0b9 7765 2f3c 6f76 adb8

fc2.weight f4 [84, 120]
-0.038129736 0.05857208 -0.00621251 5.205286e-10 0.015311695 -0.00088243803 0.005114438 0.009558545
-9.073795e-05 -0.0008787089 -0.00028510287 0.03454937 1.0387665e-06 -0.00075453956 -0.0079844305 0.055656455
0.035381418 0.015824724 -0.00028770443 -0.02067108 -2.073761e-29 0.045504514 -0.0003989856 7.182633e-06
3.1357304e-05 0.0031267114 -1.8472738e-05 -0.021529261 9.3694114e-05 -0.00029016973 -1.483219e-06 -0.01342085
6.1080027e-07 -7.969989e-05 0.06551809 -0.039720137 0.041745614 8.117651e-06 -0.075459056 0.01307243
-3.1242923e-08 -0.0072040963 7.720155e-06 1.6651622e-06 -0.008101613 -0.0007405141 5.358756e-06 -0.00030816035
-0.0069279517 0.042632923 0.0029101546 -0.0024725164 -1.2545696e-06 3.3090273e-09 -0.009395456 -0.004266104
0.036278956 0.083624914 5.4445125e-05 -4.238679e-14 -4.3648382e-05 0.007199657 1.072466e-10 2.1894912e-05
2.1130757e-07 -0.0003932879 0.005596454 0.008641442 -1.9455354e-05 0.029913593 9.3163604e-35 -6.2941206e-07
-0.00022683524 -0.017394941 -0.009128052 0.000250904 -0.036327995 -0.035720333 0.047025908 0.045181144
0.00082582 -2.8218096e-08 -4.8735846e-08 -0.026650665 0.025036357 -0.00081092905 0.016363837 -1.2938445e-07
0.00025581167 0.020855099 0.027069774 -0.01397393 -4.0573457e-05 -1.9912076e-08 0.00010320782 1.673606e-19
0.007077947 2.0329968e-07 -0.0022074913 4.707886e-20 6.4933985e-08 2.894151e-07 0.00061737833 0.040707838
-0.00048394056 0.025581766 -5.0938554e-05 3.7675574e-09 -2.3387944e-05 5.4472464e-05 -0.0043129446 1.2203944e-07
-0.0012719614 0.0025630312 0.047546346 1.5630418e-08 -0.040146094 -2.6190293e-05 -0.027133033 -0.00035069668
-0.000791802 0.021104371 -0.010735301 -1.4556777e-07 0.0035844292 -0.0040796157 -0.020389322 0.014671797
0.00012394987 0.0026930296 0.00049250526 0.013480569 0.000501695 -0.020139163 0.029650772 0.069188826
-0.054821398 0.08491757 -0.0074412483 0.04174316 -4.91621e-29 0.114346266 -0.0006930499 0.0008645506
0.003815782 -0.0029820926 -0.0023227395 -0.04299907 -0.00023783547 -0.0012373024 -8.144729e-06 -0.011991307
6.682311e-05 0.0004675231 -0.04568602 -0.08791021 0.100655265 -0.00021094673 -0.07867755 -0.08853606
9.522886e-08 0.09865739 -5.120853e-06 -6.3889196e-08 0.0116627235 -0.080527596 4.3105224e-06 -0.0023930257
-0.037575737 -0.078903 -0.002412485 -0.031836126 4.2704883e-06 -4.2440018e-07 -0.0140689155 0.00048463725
-0.044230573 0.18002166 0.00067565666 3.3122553e-14 -5.7995974e-05 -0.015307084 -2.9573725e-08 -0.0014855174
-2.254552e-05 0.0062529854 0.003380785 0.07464521 0.0005406263 -0.015124514 2.1771482e-34 -9.785996e-07
-0.0006524633 -0.027877005 0.07616943 3.330751e-05 0.042070884 -0.089769565 0.021601668 0.0619349
0.05260065 1.9356025e-06 1.4185676e-06 -0.05652964 0.15847093 0.015428189 0.1711709 8.0693036e-07
-2.0523328e-05 0.10057096 -0.005096428 0.005278763 -0.00011862953 -1.0346409e-07 0.00013352232 -3.4699917e-18
0.0014321054 -1.7075926e-07 -0.0006755879 -9.137531e-13 0.000683505 4.671891e-06 0.00094004546 -0.009813601
-0.00013301894 0.011735801 7.669317e-05 -3.7817646e-08 -0.00023830809 0.001652456 0.0040250123 5.671572e-06
0.0053951615 -0.010526997 0.006742424 4.4845923e-08 0.029216902 -0.00060700515 -0.0039110305 -0.00011595175
-0.0122403065 -0.025839806 -0.000582792 2.6760103e-08 0.0734219 -0.0019497954 -0.04143543 -0.08386545
-0.00011204819 0.0072685904 -0.00045166345 0.0022694704 -3.882218e-06 -0.0033835252 0.03128784 -0.05565882
00000000: ed2d 1cbd 47e9 6f3d 5092 cbbb f214 0f30
00000010: e7dd 7a3c 6a53 67ba 0497 a73b 729b 1c3c
00000020: 914a beb8 2859 66ba dc79 95b9 a483 0d3d
00000030: bf6b 8b35 4bcc 45ba 21d1 02bc 06f8 633d
00000040: 1bec 103d daa2 813c 09d7 96b9 6656 a9bc
00000050: ea4d d28f f162 3a3d f12e d1b9 5902 f136
00000060: a685 0338 83e9 4c3b e7f5 9ab7 225e b0bc
00000070: a57d c438 ec21 98b9 0413 c7b5 20e3 5bbc
00000080: e0f5 2335 8d24 a7b8 592e 863d 95b1 22bd
00000090: 73fd 2a3d 0c31 0837 478a 9abd bf2d 563c
000000a0: f52f 06b3 5710 ecbb d085 0137 8a7e df35
000000b0: a1bc 04bc 0f1f 42ba 5dcf b336 9590 a1b9
000000c0: df03 e3bb dc9f 2e3d 4bb8 3e3b f109 22bb
000000d0: af62 a8b5 0665 6331 66ef 19bc adca 8bbb
000000e0: 3e99 143d 8a43 ab3d 025c 6438 a4e4 3ea9
000000f0: 1813 37b8 1aeb eb3b 78d6 eb2e f7aa b737
00000100: c8e3 6234 3532 ceb9 7562 b73b d694 0d3c
00000110: 0e34 a3b7 5a0d f53c ddab f706 def4 28b5
00000120: 9fda 6db9 d67f 8ebc d38d 15bc c48b 8339
00000130: aacc 14bd 7c4f 12bd 3d9e 403d dd0f 393d
00000140: d87b 583a 4064 f2b2 a151 51b3 7f52 dabc
00000150: 0c19 cd3c 8794 54ba 740d 863c edec 0ab4
00000160: 761e 8639 50d8 aa3c 6ec1 dd3c e9f2 64bc
00000170: 6b2d 2ab8 1e0b abb2 4771 d838 a395 4520
00000180: 1fee e73b 974a 5a34 8fab 10bb d952 5e1f
00000190: d671 8b33 e960 9b34 8fd7 213a 43bd 263d
000001a0: 67b9 fdb9 da90 d13c dba6 55b8 c973 8131
000001b0: 3a31 c4b7 5d79 6438 9a53 8dbb f209 0334
000001c0: f1b7 a6ba 87f8 273b f5bf 423d a743 8632
000001d0: 3b70 24bd 3ab3 dbb7 1846 debc b6dd b7b9
000001e0: ef90 4fba 13e3 ac3c 1ee3 2fbc 5d4d 1cb4
000001f0: bee8 6a3b 4cae 85bb 8207 a7bc fa61 703c
00000200: 8af8 0139 8a7d 303b 781b 013a 9bdd 5c3c
00000210: 2e84 033a e3fa a4bc 2de6 f23c dfb2 8d3d
00000220: 678c 60bd 43e9 ad3d b7d5 f3bb e0fa 2a3d
00000230: 0e48 7990 602e ea3d cbad 35ba 02a3 623a
00000240: 3312 7a3b 366f 43bb 1a39 18bb cb1f 30bd
00000250: 7963 79b9 fb2c a2ba 58a5 08b7 3077 44bc
00000260: 6223 8c38 e31d f539 4421 3bbd 450a b4bd
00000270: 5924 ce3d 9531 5db9 b221 a1bd 6552 b5bd
00000280: 9f80 cc33 e30c ca3d cbd3 abb6 7533 89b3
00000290: 0215 3f3c a7eb a4bd 1ba3 9036 4fd4 1cbb
000002a0: 04e9 19bd e597 a1bd c81a 1ebb 9966 02bd
000002b0: 374b 8f36 1ed9 e3b4 4f81 66bc e916 fe39
000002c0: 1e2b 35bd 9957 383e 8d1e 313a b42b 1529
000002d0: b440 73b8 90ca 7abc 4f09 feb2 b1b5 c2ba
000002e0: 2320 bdb7 d8e5 cc3b 2990 5d3b 96df 983d
000002f0: d1b8 0d3a cfcc 77bc 42b2 9007 6d58 83b5
00000300: 120a 2bba 515e e4bc b8fe 9b3d abb3 0b38
00000310: 8552 2c3d 1bd9 b7bd fbf5 b03c 73af 7d3d
00000320: c773 573d 66e5 0136 9d65 be35 a08b 67bd
00000330: 3446 223e 84c6 7c3c 6d47 2f3e d59b 5835
00000340: 8329 acb7 26f8 cd3d f0ff a6bb 79f9 ac3b
00000350: bec8 f8b8 fc2f deb3 2002 0c39 2505 80a2
00000360: 7cb5 bb3a f359 37b4 f019 31ba 6d99 80ab
00000370: 3e2d 333a 3dc3 9c36 626d 763a 3ac9 20bc
00000380: 007b 0bb9 8447 403c 55d6 a038 f16c 22b3
00000390: 57e2 79b9 3997 d83a 40e4 833b 6f4e be36
000003a0: e5c9 b03b 6d79 2cbc 8def dc3b 9d9c 4033
000003b0: 4958 ef3c 6d1f 1fba 1a28 80bb 1f2b f3b8
000003c0: 918b 48bc 00ae d3bc 82c6 18ba 17de e532
000003d0: 395e 963d 4790 ffba 33b8 29bd a6c1 abbd
000003e0: 6afb eab8 5b2d ee3b 3ecd ecb9 65bb 143b
000003f0: 0044 82b6 22be 5dbb ae27 003d 81fa 63bd

fc2.bias f4 [84]
0.027222415 0.11589296 -0.035473883 0.060133047 -0.00021804974 -0.013994577 -0.0009248503 0.024291277
0.12369827 0.043930847 0.02073926 0.020506348 -0.024369773 0.051262937 0.05231049 0.013307692
6.3531195e-37 -0.010925627 0.11144325 4.420969e-06 -0.0104425615 0.011377786 0.056896906 0.07966961
-0.0012871254 -0.0021160948 0.0044061993 0.03924396 -0.00024182467 -0.02980396 -6.3502994e-05 0.005928265
8.323327e-07 -7.4946007e-07 0.062404577 -0.016951364 -2.912023e-38 0.0068599433 0.0052586156 0.0029041443
-0.017222947 0.0076316553 0.014729024 3.4035313e-06 0.012009017 -0.034028575 0.029783322 0.00018267216
-0.015491554 0.0148532605 -0.06562862 0.035639394 -0.042631708 0.0664011 0.041998476 0.0065268795
-3.0239287e-05 0.106053025 -0.013859531 -1.3916077e-06 -1.7812671e-06 0.000265736 0.04270368 1.109756e-08
0.00034261617 -1.2450792e-07 0.031649895 4.316778e-07 -0.0114948 0.009502177 -0.059506617 7.070907e-07
1.8381255e-07 -3.040267e-09 0.039273143 -0.053443898 -0.02305389 -0.022172095 0.08614662 0.00829102
-0.019726288 5.344327e-08 3.8524908e-07 0.025269197
00000000: 8b01 df3c 4a59 ed3d 104d 11bd 124e 763d
00000010: 48a4 64b9 8349 65bc a771 72ba 80fe c63c
00000020: 8555 fd3d d5f0 333d 61e5 a93c eefc a73c
00000030: 1ea3 c7bc 16f9 513d 8643 563d 8108 5a3c
00000040: 7a2f 5803 6701 33bc 5c3c e43d d657 9436
00000050: 4717 2bbc e569 3a3c bb0c 693d d229 a33d
00000060: c3b4 a8ba 2eae 0abb e161 903b 46be 203d
00000070: 5192 7db9 6f27 f4bc e92c 85b8 e441 c23b
00000080: 786d 5f35 812e 49b5 f19b 7f3d 96dd 8abc
00000090: ad8b 1e81 60c9 e03b 7750 ac3b 7553 3e3b
000000a0: 2317 8dbc f712 fa3b 0152 713c 3968 6436
000000b0: 78c1 443c 8c61 0bbd 27fc f33c af8b 3f39
000000c0: 49d0 7dbc 175b 733c 4c68 86bd 9dfa 113d
000000d0: 969e 2ebd 4dfd 873d 9806 2c3d 6fdf d53b
000000e0: 60aa fdb7 5432 d93d 1613 63bc 47c7 bab5
000000f0: df13 efb5 7b52 8b39 0eea 2e3d 96a7 3e32
00000100: 2aa1 b339 7ab0 05b4 52a3 013d 58c1 e734
00000110: b054 3cbc 05af 1b3c 36bd 73bd e7ce 3d35
00000120: 025e 4534 f1ec 50b1 e0dc 203d fde7 5abd
00000130: 83db bcbc 41a2 b5bc a46d b03d 0fd7 073c
00000140: 0699 a1bc 7f89 6533 3bd4 ce34 5901 cf3c

fc3.weight f4 [10, 84]
0.02079244 -0.13032348 0.13559537 -0.015375761 -4.7500016e-06 -0.14977002 0.00071293156 0.094629295
0.17122938 0.2916995 -0.07932882 -0.02949798 -0.047174197 0.01955469 -0.090861745 -0.029733066
5.0695346e-38 -0.10103652 -0.19440177 1.021515e-05 -0.026241083 0.2546572 -0.07119625 -0.112107195
-0.0015793637 0.23144136 -0.051470954 0.0952716 6.48315e-05 0.070766516 2.5048063e-05 0.11108155
3.34835e-05 -7.3571926e-09 -0.029736303 0.15628614 9.34796e-40 0.17220421 0.24982873 -0.097993016
-0.08173409 0.0073822355 -0.027508553 -6.2545297e-07 -0.014716213 0.16333276 -0.15138195 0.0031094658
-0.08248661 -0.021791473 0.27106163 -0.0646253 -0.09787114 -0.06725703 -0.17659028 0.014029883
0.00029423673 -0.1853629 0.015291 6.5572194e-06 3.6862386e-06 -0.0064776954 0.2365015 4.6946457e-06
-0.0001700174 1.465835e-07 -0.08645149 9.9601175e-06 -0.1252659 0.047604524 0.07225209 1.5427239e-06
-3.7530373e-07 1.3546032e-06 -0.0691104 0.24445592 0.009040018 -0.06389297 -0.0848844 -0.1530742
0.07131138 3.3104136e-06 1.0124035e-06 -0.063518226 -0.029866006 -0.06472145 0.18534319 -0.18306209
-0.00088377966 0.32943976 -0.0019045782 -0.05015249 -0.16634257 -0.19659974 -0.032762792 -0.09667886
-0.13045233 -0.1791686 -0.067266986 0.22579022 9.725407e-37 0.11703461 -0.07267959 -6.0657767e-05
0.10369086 -0.10386694 -0.061734512 -0.15452306 0.047585763 -0.09817864 -0.08837704 0.14451388
-0.000268849 0.0122355325 5.835744e-05 0.25855404 -2.6402791e-05 -1.2060887e-07 -0.11645692 0.20873033
-1.3015351e-38 -0.06899045 -0.12467751 0.12613821 -0.10922307 0.28487176 -0.07887316 -1.9668744e-06
-0.06217279 -0.12775213 -0.102387756 -0.003523504 0.17553067 -0.11055977 0.022777574 0.05338682
0.2869066 -0.07852993 -0.043199696 -0.06851667 -0.0006361607 -0.17275977 -0.21250744 8.422559e-06
-2.3173154e-06 0.0037343637 -0.002526892 -3.1968448e-05 -0.00021153333 3.651557e-08 -0.122508936 -2.1016945e-07
0.20460145 -0.08380328 0.060964573 -4.240158e-06 1.5086064e-06 -1.6961135e-07 -0.07641392 -0.102687225
0.21977384 -0.06519683 -0.123532385 -0.0979742 0.13967647 -6.8004846e-07 -6.74402e-06 -0.040220868
-0.07849204 0.09983435 -0.07948315 -0.069560006 -4.7461996e-05 0.08239373 -0.0006840773 -0.0033212483
0.2536251 0.25555408 -0.17042777 -0.16701604 -0.12738007 -0.07665906 0.030588627 -0.071963936
1.5563813e-37 -0.061518174 0.21786776 3.6131874e-05 -0.021333205 0.4963468 -0.06558057 0.24499296
0.0039299834 -0.05044959 0.16044071 0.18439694 -1.19338565e-05 -0.091824345 1.1026376e-05 -0.11759592
5.2497285e-06 5.1506953e-07 0.025675956 -0.043623347 -2.5323428e-38 -0.018122347 -0.0774818 -0.016092505
0.13672142 -0.08856417 -0.009762843 1.1791332e-06 0.052849036 -0.14953598 -0.23065872 -0.0032226122
-0.015287719 -0.07236025 -0.12784539 0.0214169 0.083075054 -0.066278346 0.059644025 0.009606
-0.00014426802 0.024984933 0.06674654 -3.3376438e-07 6.3842685e-06 0.006207777 0.028146965 0.00022456591
-0.00080327183 4.0207193e-05 0.19035476 1.9058876e-05 -0.046416163 -0.021587014 -0.076734655 4.9318232e-06
6.7636927e-07 3.423293e-06 -0.07913909 0.056635696 0.09719754 0.040852554 -0.21713293 0.1794407
-0.16329725 5.599379e-07 6.0829575e-07 0.039233092 -0.03813108 0.030109309 -0.10938948 -0.024526674
00000000: e854 aa3c 8573 05be 83d9 0a3e 9eea 7bbc
00000010: 3462 9fb6 505d 19be 07e4 3a3a 01cd c13d
00000020: c156 2f3e a359 953e 2677 a2bd bfa5 f1bc
00000030: bb39 41bd 2831 a03c b915 babd c292 f3bc
00000040: 8001 8a01 3cec cebd 4211 47be bc61 2b37
00000050: 8af7 d6bc 6e62 823e 57cf 91bd 7598 e5bd
00000060: a702 cfba f7fe 6c3e 35d3 52bd c21d c33d
00000070: 26f6 8738 09ee 903d 4e1e d237 b97e e33d
00000080: a270 0c38 8dca fcb1 8c99 f3bc 7909 203e
00000090: d52d 0a00 4d56 303e 1ad3 7f3e 90b0 c8bd
000000a0: 3464 a7bd aee6 f13b 9e59 e1bc cde4 27b5
000000b0: 451c 71bc b440 273e df03 1bbe 2ec8 4b3b
000000c0: bdee a8bd 0884 b2bc 97c8 8a3e 455a 84bd
000000d0: aa70 c8bd 0ebe 89bd 15d4 34be 98dd 653c
000000e0: c943 9a39 c6cf 3dbe 1a87 7a3c 1606 dc36
000000f0: 1961 7736 d942 d4bb 732d 723e b386 9d36
00000100: b346 32b9 9164 1d34 7b0d b1bd 611a 2737
00000110: b445 00be f6fc 423d e7f8 933d 970f cf35
00000120: 5a7d c9b4 d0cf b535 c189 8dbd a752 7a3e
00000130: 951c 143c 51da 82bd dfd7 adbd 7cbf 1cbe
00000140: b30b 923d 7928 5e36 ebe1 8735 d815 82bd
00000150: 8ea9 f4bc ae8c 84bd 9bca 3d3e a174 3bbe
00000160: 73ad 67ba 54ac a83e 0aa3 f9ba b36c 4dbd
00000170: b555 2abe 7151 49be 4732 06bd 91ff c5bd
00000180: 4c95 05be f977 37be 46c3 89bd 8d35 673e
00000190: 1f78 a503 d7af ef3d 09d9 94bd c86a 7eb8
000001a0: e05b d43d 31b8 d4bd 54dd 7cbd 4b3b 1ebe
000001b0: 4ae9 423d e211 c9bd 06ff b4bd 72fb 133e
000001c0: 4df4 8cb9 8b77 483c d3c4 7438 3261 843e
000001d0: 907b ddb7 b780 01b4 f780 eebd 67bd 553e
000001e0: 81b9 8d80 dd4a 8dbd ec56 ffbd 602a 013e
000001f0: 58b0 dfbd b6da 913e 4088 a1bd a5fe 03b6
00000200: e5a8 7ebd 74d1 02be acb0 d1bd 96ea 66bb
00000210: 50be 333e 296d e2bd 0998 ba3c 23ac 5a3d
00000220: 6ce5 923e 4dd4 a0bd 2af2 30bd 7852 8cbd
00000230: 06c4 26ba f0e7 30be 8d9b 59be 9e4e 0d37
00000240: 2d83 1bb6 3abc 743b 379a 25bb dc15 06b8
00000250: 0ccf 5db9 4bd5 1c33 f7e5 fabd f0aa 61b4
00000260: 0b83 513e 0ea1 abbd fdb5 793d ae46 8eb6
00000270: 527b ca35 6a1e 36b4 e77e 9cbd ae4d d2bd
00000280: 650c 613e ea85 85bd 8cfe fcbd b3a6 c8bd
00000290: 5907 0f3e 938c 36b5 b14a e2b6 a3be 24bd
000002a0: 6fc0 a0bd f475 cc3d 10c8 a2bd 7a75 8ebd
000002b0: ee11 47b8 0bbe a83d a753 33ba 4da9 59bb
000002c0: 26db 813e fcd7 823e 9e84 2ebe 4106 2bbe
000002d0: ec6f 02be 6dff 9cbd 0095 fa3c d461 93bd
000002e0: f9d7 5302 7bfa 7bbd ba18 5f3e 4e8c 1738
000002f0: f9c2 aebc 2b21 fe3e 1b4f 86bd 6fdf 7a3e
00000300: 17c7 803b 3ba4 4ebd 924a 243e 8dd2 3c3e
00000310: 8637 48b7 670e bcbd edfd 3837 21d6 f0bd
00000320: d326 b036 4f43 0a35 6256 d23c 65ae 32bd
00000330: b5df 0981 5175 94bc c7ae 9ebd 6ed4 83bc
00000340: b300 0c3e 2261 b5bd 55f4 1fbc b542 9e35
00000350: 3b78 583d f61f 19be cd31 6cbe 7632 53bb
00000360: 5779 7abc 9c31 94bd e7e9 02be 7f72 af3c
00000370: 4123 aa3d f1bc 87bd 4b4d 743d 7c62 1d3c
00000380: a746 17b9 34ad cc3c 69b2 883d 3a30 b3b4
00000390: 7338 d636 9c6a cb3b 7794 e63c 7479 6b39
000003a0: a992 52ba 25a4 2838 5cec 423e a0e0 9f37
000003b0: e01e 3ebd 40d7 b0bc 0f27 9dbd 0a7c a536
000003c0: be8f 3535 babb 6536 ad13 a2bd d5fa 673d
000003d0: 810f c73d 0255 273d 1858 5ebe 4ebf 373e
000003e0: 6537 27be a44e 1635 c449 2335 e1b2 203d
000003f0: 562f 1cbd cca7 f63c 9707 e0bd 2aec c8bc

fc3.bias f4 [10]
-0.09017263 -0.1036256 0.048081957 0.04514376 0.20229727 -0.031177277 0.004703048 -0.11627306
0.07068116 -0.027806912
00000000: 6eac b8bd a939 d4bd 96f1 443d aae8 383d
00000010: 0427 4f3e 7d67 ffbc 071c 9a3b 9220 eebd
00000020: 49c1 903d 52cb e3bc

exp_avg f4 [6, 3, 5, 5]
0.01532536 0.013434477 0.015972583 0.017281821 0.015349135 0.020471709 0.019097593 0.020979697
0.019680845 0.016894167 0.019449443 0.020788217 0.019040672 0.015343214 0.0109057 0.0072020735
0.006520283 0.0031150128 0.0030742728 0.0016906868 -0.0033882544 -0.005393157 -0.007530295 -0.00287539
-0.00016561513 0.020200402 0.018539915 0.021681556 0.02393423 0.023701146 0.025085878 0.024046963
0.02572921 0.025125679 0.02386452 0.024819555 0.02563544 0.023838038 0.020648688 0.017357728
0.013265692 0.011781433 0.008961615 0.009480072 0.008799802 0.0030515154 0.0010303643 -0.0006739862
0.0051998924 0.008364032 0.0074981367 0.0060963216 0.00913793 0.012771457 0.014292661 0.0110577
0.008954056 0.010918375 0.012420986 0.0133156525 0.010668954 0.0112927025 0.010125 0.00920614
0.008451465 0.0032291063 0.0032005147 0.0013314656 0.0032657662 0.0045814505 -0.0017330818 -0.0022750904
-0.003219169 0.0027333905 0.006473584 0.00012337715 -0.0008407495 -0.0007420017 -0.001564933 0.00044602362
0.0013132137 0.001347044 0.0028810706 0.0030945723 0.0038913565 0.0010936396 0.0022081116 0.005234362
0.005681341 0.004355461 0.0017974298 0.00213149 0.004656741 0.0049810885 0.0037983807 0.002110663
0.0015108706 0.0018643003 0.001853323 0.001694272 8.059118e-05 -0.00040103224 -0.0005297148 -0.0018836055
-0.00010526463 0.0010402682 0.0013805339 0.0025282132 0.0020342954 0.0029515428 0.0010749239 0.00218464
0.004406638 0.004283327 0.0031983792 0.0017842682 0.0020288364 0.00362324 0.0036173402 0.0027994378
0.0020626567 0.00090755435 0.00022157667 8.488587e-06 0.0007642918 0.0004820422 0.0012572845 0.0011808464
1.3582284e-05 0.0020795567 0.0018921726 0.0032176962 0.0042820745 0.0036687823 0.004660872 0.002812361
0.0044287294 0.0061685406 0.0059205266 0.005002459 0.0036289445 0.003947703 0.00542724 0.005706686
0.004913693 0.003230309 0.0020625587 0.0012897917 0.0018792109 0.002488065 0.018509634 0.020309739
0.020188358 0.019417554 0.018766504 0.020054264 0.021764452 0.022952966 0.020757483 0.018789664
0.017256545 0.017158082 0.020622617 0.021204142 0.01806429 0.011154917 0.009679331 0.013235318
0.017055353 0.015882052 0.005454151 0.0052888636 0.009594392 0.01318918 0.012873841 0.020919092
0.023604687 0.023303019 0.021431543 0.019754866 0.023012057 0.026072603 0.027055282 0.023968851
0.02050776 0.0209585 0.021603204 0.025376938 0.02574148 0.021503743 0.016549999 0.0153564615
0.018453084 0.022081984 0.02099764 0.012784484 0.011918056 0.014930047 0.018513232 0.018620543
0.019508166 0.020999568 0.019623045 0.016180236 0.013102566 0.021398399 0.022745196 0.022743484
0.018486451 0.01392577 0.01893612 0.017828882 0.020404452 0.020544931 0.015247464 0.014283177
0.011730546 0.013489264 0.016264917 0.014301047 0.01179468 0.009629807 0.010476511 0.012901894
0.012199738 -0.0308841 -0.030983746 -0.030411761 -0.028464498 -0.030427953 -0.034615144 -0.03082284
-0.028323561 -0.027205188 -0.031158373 -0.031265162 -0.024797874 -0.024757376 -0.025664758 -0.029727934
-0.021888934 -0.01934164 -0.022680046 -0.027498398 -0.030916406 -0.018671824 -0.018484944 -0.02144458
-0.02620556 -0.02993261 -0.01934317 -0.01840315 -0.018367968 -0.016595297 -0.018433206 -0.026924988
00000000: 3817 7b3c 481c 5c3c efd8 823c 9b92 8d3c
00000010: f07a 7b3c 49b4 a73c 8e72 9c3c 9ddd ab3c
00000020: b939 a13c a365 8a3c 7054 9f3c 0d4c aa3c
00000030: 2ffb 9b3c 1b62 7b3c d2ad 323c 5fff eb3b
00000040: 19a8 d53b 3e25 4c3b bd79 493b 099a dd3a
00000050: 7a0d 5ebb 14b9 b0bb b1c0 f6bb 0a71 3cbb
00000060: f9a8 2db9 507b a53c 05e1 973c 859d b13c
00000070: b811 c43c e828 c23c e680 cd3c 23fe c43c
00000080: 10c6 d23c 5ed4 cd3c 877f c33c 6152 cb3c
00000090: 6a01 d23c fd47 c33c 7027 a93c cb31 8e3c
000000a0: 5858 593c e906 413c bdd3 123c 4e52 1b3c
000000b0: 0b2d 103c effb 473b 4a0d 873a 73ae 30ba
000000c0: dc63 aa3b 4b09 093c eeb2 f53b a7c3 c73b
000000d0: 42b7 153c 603f 513c c42b 6a3c 5b2b 353c
000000e0: 08b4 123c fce2 323c 6481 4b3c e529 5a3c
000000f0: d6cc 2e3c 0705 393c 54e3 253c 5ad5 163c
00000100: 0378 0a3c 6a9f 533b babf 513b 9284 ae3a
00000110: 7706 563b fe1f 963b 9328 e3ba af19 15bb
00000120: b2f8 52bb af22 333b 5c20 d43b cd5e 0139
00000130: be65 5cba e482 42ba 701e cdba 47d8 e939
00000140: 2420 ac3a 4c8f b03a 58d0 3c3b 4fce 4a3b
00000150: 2106 7f3b 7558 8f3a f7b5 103b 0385 ab3b
00000160: 8b2a ba3b 41b8 8e3b bc97 eb3a 78b0 0b3b
00000170: 9397 983b 6638 a33b 41ee 783b 0d53 0a3b
00000180: 6808 c63a 8a5b f43a 33eb f23a 5612 de3a
00000190: 0f03 a938 a341 d2b9 8fdc 0aba 50e3 f6ba
000001a0: 85c1 dcb8 9c59 883a 08f3 b43a 61b0 253b
000001b0: d051 053b ac6e 413b 76e4 8c3a 2d2c 0f3b
000001c0: 8f65 903b 275b 8c3b e69b 513b 1bde e93a
000001d0: 3af6 043b e173 6d3b e610 6d3b c676 373b
000001e0: a32d 073b f1e8 6d3a 0957 6839 346a 0e37
000001f0: c15a 483a 9cba fc39 78cb a43a a1c6 9a3a
00000200: 77df 6337 2c49 083b c702 f83a fcdf 523b
00000210: a550 8c3b f46f 703b 3aba 983b 974f 383b
00000220: e01e 913b 7821 ca3b fa00 c23b abeb a33b
00000230: 96d3 6d3b bc5b 813b fdd6 b13b 27ff ba3b
00000240: 0b03 a13b 98b3 533b fe2b 073b 3a0e a93a
00000250: db4f f63a ce0e 233b 84a1 973c 9c60 a63c
00000260: 0e62 a53c 9011 9f3c 36bc 993c d748 a43c
00000270: 5d4b b23c dc07 bc3c 990b aa3c c8ec 993c
00000280: 995d 8d3c 1b8f 8c3c c3f0 a83c 4fb4 ad3c
00000290: 90fb 933c 1dc3 363c 0f96 1e3c f2d8 583c
000002a0: abb7 8b3c 141b 823c bcb8 b23b 344e ad3b
000002b0: cc31 1d3c 6e17 583c ceec 523c 845e ab3c
000002c0: 9e5e c13c f9e5 be3c 3491 af3c f5d4 a13c
000002d0: c883 bc3c 3696 d53c 0aa3 dd3c 535a c43c
000002e0: e4ff a73c 29b1 ab3c 34f9 b03c 4ce3 cf3c
000002f0: ccdf d23c 9e28 b03c dd93 873c ab99 7b3c
00000300: ec2a 973c 47e5 b43c 3e03 ac3c 0376 513c
00000310: f343 433c 289d 743c 10a9 973c 1c8a 983c
00000320: 97cf 9f3c 4907 ac3c 82c0 a03c 6a8c 843c
00000330: 25ac 563c b24b af3c 2254 ba3c 8b50 ba3c
00000340: e670 973c ea28 643c ec1f 9b3c e00d 923c
00000350: 3d27 a73c d84d a83c 80d0 793c fd03 6a3c
00000360: 7a31 403c 1302 5d3c 013e 853c f04e 6a3c
00000370: 793e 413c 57c6 1d3c aca5 2b3c 7762 533c
00000380: 69e1 473c a700 fdbc a0d1 fdbc 1622 f9bc
00000390: 612e e9bc 0b44 f9bc 9cc8 0dbd 2e80 fcbc
000003a0: d006 e8bc 6add debc d83f ffbc e60f 00bd
000003b0: e924 cbbc fbcf cabc e63e d2bc ff87 f3bc
000003c0: 6c50 b3bc 5c72 9ebc 81cb b9bc 5244 e1bc
000003d0: 6744 fdbc a7f5 98bc bd6d 97bc 8bac afbc
000003e0: 0bad d6bc 3c35 f5bc 9175 9ebc 34c2 96bc
000003f0: 6c78 96bc dcf2 87bc 3c01 97bc cb91 dcbc
